{"format": "graph-model", "generatedBy": "2.18.0", "convertedBy": "TensorFlow.js Converter v4.22.0", "signature": {"inputs": {"keras_tensor_891": {"name": "keras_tensor_891:0", "dtype": "DT_FLOAT", "tensorShape": {"dim": [{"size": "-1"}, {"size": "60"}, {"size": "1662"}]}}}, "outputs": {"output_0": {"name": "Identity:0", "dtype": "DT_FLOAT", "tensorShape": {"dim": [{"size": "-1"}, {"size": "8"}]}}}}, "modelTopology": {"node": [{"name": "StatefulPartitionedCall/sequential_13_1/lstm_54_1/zeros/packed/1", "op": "Const", "attr": {"value": {"tensor": {"dtype": "DT_INT32", "tensorShape": {}}}, "dtype": {"type": "DT_INT32"}}}, {"name": "StatefulPartitionedCall/sequential_13_1/lstm_54_1/zeros/Const", "op": "Const", "attr": {"value": {"tensor": {"dtype": "DT_FLOAT", "tensorShape": {}}}, "dtype": {"type": "DT_FLOAT"}}}, {"name": "StatefulPartitionedCall/sequential_13_1/lstm_54_1/ExpandDims/dim", "op": "Const", "attr": {"dtype": {"type": "DT_INT32"}, "value": {"tensor": {"dtype": "DT_INT32", "tensorShape": {}}}}}, {"name": "StatefulPartitionedCall/sequential_13_1/lstm_54_1/strided_slice/stack", "op": "Const", "attr": {"dtype": {"type": "DT_INT32"}, "value": {"tensor": {"dtype": "DT_INT32", "tensorShape": {"dim": [{"size": "1"}]}}}}}, {"name": "StatefulPartitionedCall/sequential_13_1/lstm_54_1/strided_slice/stack_1", "op": "Const", "attr": {"value": {"tensor": {"dtype": "DT_INT32", "tensorShape": {"dim": [{"size": "1"}]}}}, "dtype": {"type": "DT_INT32"}}}, {"name": "StatefulPartitionedCall/sequential_13_1/lstm_54_1/strided_slice/stack_2", "op": "Const", "attr": {"dtype": {"type": "DT_INT32"}, "value": {"tensor": {"dtype": "DT_INT32", "tensorShape": {"dim": [{"size": "1"}]}}}}}, {"name": "StatefulPartitionedCall/sequential_13_1/lstm_54_1/zeros_1/packed/1", "op": "Const", "attr": {"dtype": {"type": "DT_INT32"}, "value": {"tensor": {"dtype": "DT_INT32", "tensorShape": {}}}}}, {"name": "StatefulPartitionedCall/sequential_13_1/lstm_54_1/zeros_1/Const", "op": "Const", "attr": {"dtype": {"type": "DT_FLOAT"}, "value": {"tensor": {"dtype": "DT_FLOAT", "tensorShape": {}}}}}, {"name": "StatefulPartitionedCall/sequential_13_1/lstm_54_1/ExpandDims_1/dim", "op": "Const", "attr": {"value": {"tensor": {"dtype": "DT_INT32", "tensorShape": {}}}, "dtype": {"type": "DT_INT32"}}}, {"name": "StatefulPartitionedCall/sequential_13_1/lstm_54_1/concat_1", "op": "Const", "attr": {"dtype": {"type": "DT_FLOAT"}, "value": {"tensor": {"dtype": "DT_FLOAT", "tensorShape": {"dim": [{"size": "12544"}]}}}}}, {"name": "StatefulPartitionedCall/sequential_13_1/lstm_54_1/strided_slice_2/stack", "op": "Const", "attr": {"value": {"tensor": {"dtype": "DT_INT32", "tensorShape": {"dim": [{"size": "1"}]}}}, "dtype": {"type": "DT_INT32"}}}, {"name": "StatefulPartitionedCall/sequential_13_1/lstm_54_1/strided_slice_2/stack_1", "op": "Const", "attr": {"dtype": {"type": "DT_INT32"}, "value": {"tensor": {"dtype": "DT_INT32", "tensorShape": {"dim": [{"size": "1"}]}}}}}, {"name": "StatefulPartitionedCall/sequential_13_1/lstm_54_1/strided_slice_2/stack_2", "op": "Const", "attr": {"value": {"tensor": {"dtype": "DT_INT32", "tensorShape": {"dim": [{"size": "1"}]}}}, "dtype": {"type": "DT_INT32"}}}, {"name": "StatefulPartitionedCall/sequential_13_1/time_distributed_11_1/strided_slice_1/stack", "op": "Const", "attr": {"value": {"tensor": {"dtype": "DT_INT32", "tensorShape": {"dim": [{"size": "1"}]}}}, "dtype": {"type": "DT_INT32"}}}, {"name": "StatefulPartitionedCall/sequential_13_1/time_distributed_11_1/strided_slice_1/stack_1", "op": "Const", "attr": {"value": {"tensor": {"dtype": "DT_INT32", "tensorShape": {"dim": [{"size": "1"}]}}}, "dtype": {"type": "DT_INT32"}}}, {"name": "StatefulPartitionedCall/sequential_13_1/time_distributed_11_1/strided_slice_1/stack_2", "op": "Const", "attr": {"value": {"tensor": {"dtype": "DT_INT32", "tensorShape": {"dim": [{"size": "1"}]}}}, "dtype": {"type": "DT_INT32"}}}, {"name": "StatefulPartitionedCall/sequential_13_1/time_distributed_11_1/Cast/ReadVariableOp", "op": "Const", "attr": {"value": {"tensor": {"dtype": "DT_FLOAT", "tensorShape": {"dim": [{"size": "64"}, {"size": "64"}]}}}, "dtype": {"type": "DT_FLOAT"}}}, {"name": "StatefulPartitionedCall/sequential_13_1/time_distributed_11_1/BiasAdd/ReadVariableOp", "op": "Const", "attr": {"value": {"tensor": {"dtype": "DT_FLOAT", "tensorShape": {"dim": [{"size": "64"}]}}}, "dtype": {"type": "DT_FLOAT"}}}, {"name": "StatefulPartitionedCall/sequential_13_1/time_distributed_11_1/strided_slice_2/stack", "op": "Const", "attr": {"dtype": {"type": "DT_INT32"}, "value": {"tensor": {"dtype": "DT_INT32", "tensorShape": {"dim": [{"size": "1"}]}}}}}, {"name": "StatefulPartitionedCall/sequential_13_1/time_distributed_11_1/strided_slice_2/stack_1", "op": "Const", "attr": {"dtype": {"type": "DT_INT32"}, "value": {"tensor": {"dtype": "DT_INT32", "tensorShape": {"dim": [{"size": "1"}]}}}}}, {"name": "StatefulPartitionedCall/sequential_13_1/time_distributed_11_1/strided_slice_2/stack_2", "op": "Const", "attr": {"value": {"tensor": {"dtype": "DT_INT32", "tensorShape": {"dim": [{"size": "1"}]}}}, "dtype": {"type": "DT_INT32"}}}, {"name": "StatefulPartitionedCall/sequential_13_1/time_distributed_11_1/Cast_1/ReadVariableOp", "op": "Const", "attr": {"dtype": {"type": "DT_FLOAT"}, "value": {"tensor": {"dtype": "DT_FLOAT", "tensorShape": {"dim": [{"size": "64"}, {"size": "64"}]}}}}}, {"name": "StatefulPartitionedCall/sequential_13_1/time_distributed_11_1/BiasAdd_1/ReadVariableOp", "op": "Const", "attr": {"value": {"tensor": {"dtype": "DT_FLOAT", "tensorShape": {"dim": [{"size": "64"}]}}}, "dtype": {"type": "DT_FLOAT"}}}, {"name": "StatefulPartitionedCall/sequential_13_1/time_distributed_11_1/strided_slice_3/stack", "op": "Const", "attr": {"value": {"tensor": {"dtype": "DT_INT32", "tensorShape": {"dim": [{"size": "1"}]}}}, "dtype": {"type": "DT_INT32"}}}, {"name": "StatefulPartitionedCall/sequential_13_1/time_distributed_11_1/strided_slice_3/stack_1", "op": "Const", "attr": {"dtype": {"type": "DT_INT32"}, "value": {"tensor": {"dtype": "DT_INT32", "tensorShape": {"dim": [{"size": "1"}]}}}}}, {"name": "StatefulPartitionedCall/sequential_13_1/time_distributed_11_1/strided_slice_3/stack_2", "op": "Const", "attr": {"value": {"tensor": {"dtype": "DT_INT32", "tensorShape": {"dim": [{"size": "1"}]}}}, "dtype": {"type": "DT_INT32"}}}, {"name": "StatefulPartitionedCall/sequential_13_1/time_distributed_11_1/Cast_2/ReadVariableOp", "op": "Const", "attr": {"value": {"tensor": {"dtype": "DT_FLOAT", "tensorShape": {"dim": [{"size": "64"}, {"size": "64"}]}}}, "dtype": {"type": "DT_FLOAT"}}}, {"name": "StatefulPartitionedCall/sequential_13_1/time_distributed_11_1/BiasAdd_2/ReadVariableOp", "op": "Const", "attr": {"dtype": {"type": "DT_FLOAT"}, "value": {"tensor": {"dtype": "DT_FLOAT", "tensorShape": {"dim": [{"size": "64"}]}}}}}, {"name": "StatefulPartitionedCall/sequential_13_1/time_distributed_11_1/strided_slice_4/stack", "op": "Const", "attr": {"value": {"tensor": {"dtype": "DT_INT32", "tensorShape": {"dim": [{"size": "1"}]}}}, "dtype": {"type": "DT_INT32"}}}, {"name": "StatefulPartitionedCall/sequential_13_1/time_distributed_11_1/strided_slice_4/stack_1", "op": "Const", "attr": {"value": {"tensor": {"dtype": "DT_INT32", "tensorShape": {"dim": [{"size": "1"}]}}}, "dtype": {"type": "DT_INT32"}}}, {"name": "StatefulPartitionedCall/sequential_13_1/time_distributed_11_1/strided_slice_4/stack_2", "op": "Const", "attr": {"value": {"tensor": {"dtype": "DT_INT32", "tensorShape": {"dim": [{"size": "1"}]}}}, "dtype": {"type": "DT_INT32"}}}, {"name": "StatefulPartitionedCall/sequential_13_1/time_distributed_11_1/Cast_3/ReadVariableOp", "op": "Const", "attr": {"value": {"tensor": {"dtype": "DT_FLOAT", "tensorShape": {"dim": [{"size": "64"}, {"size": "64"}]}}}, "dtype": {"type": "DT_FLOAT"}}}, {"name": "StatefulPartitionedCall/sequential_13_1/time_distributed_11_1/BiasAdd_3/ReadVariableOp", "op": "Const", "attr": {"value": {"tensor": {"dtype": "DT_FLOAT", "tensorShape": {"dim": [{"size": "64"}]}}}, "dtype": {"type": "DT_FLOAT"}}}, {"name": "StatefulPartitionedCall/sequential_13_1/time_distributed_11_1/strided_slice_5/stack", "op": "Const", "attr": {"dtype": {"type": "DT_INT32"}, "value": {"tensor": {"dtype": "DT_INT32", "tensorShape": {"dim": [{"size": "1"}]}}}}}, {"name": "StatefulPartitionedCall/sequential_13_1/time_distributed_11_1/strided_slice_5/stack_1", "op": "Const", "attr": {"dtype": {"type": "DT_INT32"}, "value": {"tensor": {"dtype": "DT_INT32", "tensorShape": {"dim": [{"size": "1"}]}}}}}, {"name": "StatefulPartitionedCall/sequential_13_1/time_distributed_11_1/strided_slice_5/stack_2", "op": "Const", "attr": {"value": {"tensor": {"dtype": "DT_INT32", "tensorShape": {"dim": [{"size": "1"}]}}}, "dtype": {"type": "DT_INT32"}}}, {"name": "StatefulPartitionedCall/sequential_13_1/time_distributed_11_1/Cast_4/ReadVariableOp", "op": "Const", "attr": {"dtype": {"type": "DT_FLOAT"}, "value": {"tensor": {"dtype": "DT_FLOAT", "tensorShape": {"dim": [{"size": "64"}, {"size": "64"}]}}}}}, {"name": "StatefulPartitionedCall/sequential_13_1/time_distributed_11_1/BiasAdd_4/ReadVariableOp", "op": "Const", "attr": {"dtype": {"type": "DT_FLOAT"}, "value": {"tensor": {"dtype": "DT_FLOAT", "tensorShape": {"dim": [{"size": "64"}]}}}}}, {"name": "StatefulPartitionedCall/sequential_13_1/time_distributed_11_1/strided_slice_6/stack", "op": "Const", "attr": {"value": {"tensor": {"dtype": "DT_INT32", "tensorShape": {"dim": [{"size": "1"}]}}}, "dtype": {"type": "DT_INT32"}}}, {"name": "StatefulPartitionedCall/sequential_13_1/time_distributed_11_1/strided_slice_6/stack_1", "op": "Const", "attr": {"value": {"tensor": {"dtype": "DT_INT32", "tensorShape": {"dim": [{"size": "1"}]}}}, "dtype": {"type": "DT_INT32"}}}, {"name": "StatefulPartitionedCall/sequential_13_1/time_distributed_11_1/strided_slice_6/stack_2", "op": "Const", "attr": {"dtype": {"type": "DT_INT32"}, "value": {"tensor": {"dtype": "DT_INT32", "tensorShape": {"dim": [{"size": "1"}]}}}}}, {"name": "StatefulPartitionedCall/sequential_13_1/time_distributed_11_1/Cast_5/ReadVariableOp", "op": "Const", "attr": {"value": {"tensor": {"dtype": "DT_FLOAT", "tensorShape": {"dim": [{"size": "64"}, {"size": "64"}]}}}, "dtype": {"type": "DT_FLOAT"}}}, {"name": "StatefulPartitionedCall/sequential_13_1/time_distributed_11_1/BiasAdd_5/ReadVariableOp", "op": "Const", "attr": {"dtype": {"type": "DT_FLOAT"}, "value": {"tensor": {"dtype": "DT_FLOAT", "tensorShape": {"dim": [{"size": "64"}]}}}}}, {"name": "StatefulPartitionedCall/sequential_13_1/time_distributed_11_1/strided_slice_7/stack", "op": "Const", "attr": {"dtype": {"type": "DT_INT32"}, "value": {"tensor": {"dtype": "DT_INT32", "tensorShape": {"dim": [{"size": "1"}]}}}}}, {"name": "StatefulPartitionedCall/sequential_13_1/time_distributed_11_1/strided_slice_7/stack_1", "op": "Const", "attr": {"value": {"tensor": {"dtype": "DT_INT32", "tensorShape": {"dim": [{"size": "1"}]}}}, "dtype": {"type": "DT_INT32"}}}, {"name": "StatefulPartitionedCall/sequential_13_1/time_distributed_11_1/strided_slice_7/stack_2", "op": "Const", "attr": {"dtype": {"type": "DT_INT32"}, "value": {"tensor": {"dtype": "DT_INT32", "tensorShape": {"dim": [{"size": "1"}]}}}}}, {"name": "StatefulPartitionedCall/sequential_13_1/time_distributed_11_1/Cast_6/ReadVariableOp", "op": "Const", "attr": {"value": {"tensor": {"dtype": "DT_FLOAT", "tensorShape": {"dim": [{"size": "64"}, {"size": "64"}]}}}, "dtype": {"type": "DT_FLOAT"}}}, {"name": "StatefulPartitionedCall/sequential_13_1/time_distributed_11_1/BiasAdd_6/ReadVariableOp", "op": "Const", "attr": {"dtype": {"type": "DT_FLOAT"}, "value": {"tensor": {"dtype": "DT_FLOAT", "tensorShape": {"dim": [{"size": "64"}]}}}}}, {"name": "StatefulPartitionedCall/sequential_13_1/time_distributed_11_1/strided_slice_8/stack", "op": "Const", "attr": {"value": {"tensor": {"dtype": "DT_INT32", "tensorShape": {"dim": [{"size": "1"}]}}}, "dtype": {"type": "DT_INT32"}}}, {"name": "StatefulPartitionedCall/sequential_13_1/time_distributed_11_1/strided_slice_8/stack_1", "op": "Const", "attr": {"value": {"tensor": {"dtype": "DT_INT32", "tensorShape": {"dim": [{"size": "1"}]}}}, "dtype": {"type": "DT_INT32"}}}, {"name": "StatefulPartitionedCall/sequential_13_1/time_distributed_11_1/strided_slice_8/stack_2", "op": "Const", "attr": {"dtype": {"type": "DT_INT32"}, "value": {"tensor": {"dtype": "DT_INT32", "tensorShape": {"dim": [{"size": "1"}]}}}}}, {"name": "StatefulPartitionedCall/sequential_13_1/time_distributed_11_1/Cast_7/ReadVariableOp", "op": "Const", "attr": {"dtype": {"type": "DT_FLOAT"}, "value": {"tensor": {"dtype": "DT_FLOAT", "tensorShape": {"dim": [{"size": "64"}, {"size": "64"}]}}}}}, {"name": "StatefulPartitionedCall/sequential_13_1/time_distributed_11_1/BiasAdd_7/ReadVariableOp", "op": "Const", "attr": {"dtype": {"type": "DT_FLOAT"}, "value": {"tensor": {"dtype": "DT_FLOAT", "tensorShape": {"dim": [{"size": "64"}]}}}}}, {"name": "StatefulPartitionedCall/sequential_13_1/time_distributed_11_1/strided_slice_9/stack", "op": "Const", "attr": {"value": {"tensor": {"dtype": "DT_INT32", "tensorShape": {"dim": [{"size": "1"}]}}}, "dtype": {"type": "DT_INT32"}}}, {"name": "StatefulPartitionedCall/sequential_13_1/time_distributed_11_1/strided_slice_9/stack_1", "op": "Const", "attr": {"value": {"tensor": {"dtype": "DT_INT32", "tensorShape": {"dim": [{"size": "1"}]}}}, "dtype": {"type": "DT_INT32"}}}, {"name": "StatefulPartitionedCall/sequential_13_1/time_distributed_11_1/strided_slice_9/stack_2", "op": "Const", "attr": {"dtype": {"type": "DT_INT32"}, "value": {"tensor": {"dtype": "DT_INT32", "tensorShape": {"dim": [{"size": "1"}]}}}}}, {"name": "StatefulPartitionedCall/sequential_13_1/time_distributed_11_1/Cast_8/ReadVariableOp", "op": "Const", "attr": {"value": {"tensor": {"dtype": "DT_FLOAT", "tensorShape": {"dim": [{"size": "64"}, {"size": "64"}]}}}, "dtype": {"type": "DT_FLOAT"}}}, {"name": "StatefulPartitionedCall/sequential_13_1/time_distributed_11_1/BiasAdd_8/ReadVariableOp", "op": "Const", "attr": {"value": {"tensor": {"dtype": "DT_FLOAT", "tensorShape": {"dim": [{"size": "64"}]}}}, "dtype": {"type": "DT_FLOAT"}}}, {"name": "StatefulPartitionedCall/sequential_13_1/time_distributed_11_1/strided_slice_10/stack", "op": "Const", "attr": {"value": {"tensor": {"dtype": "DT_INT32", "tensorShape": {"dim": [{"size": "1"}]}}}, "dtype": {"type": "DT_INT32"}}}, {"name": "StatefulPartitionedCall/sequential_13_1/time_distributed_11_1/strided_slice_10/stack_1", "op": "Const", "attr": {"value": {"tensor": {"dtype": "DT_INT32", "tensorShape": {"dim": [{"size": "1"}]}}}, "dtype": {"type": "DT_INT32"}}}, {"name": "StatefulPartitionedCall/sequential_13_1/time_distributed_11_1/strided_slice_10/stack_2", "op": "Const", "attr": {"value": {"tensor": {"dtype": "DT_INT32", "tensorShape": {"dim": [{"size": "1"}]}}}, "dtype": {"type": "DT_INT32"}}}, {"name": "StatefulPartitionedCall/sequential_13_1/time_distributed_11_1/Cast_9/ReadVariableOp", "op": "Const", "attr": {"dtype": {"type": "DT_FLOAT"}, "value": {"tensor": {"dtype": "DT_FLOAT", "tensorShape": {"dim": [{"size": "64"}, {"size": "64"}]}}}}}, {"name": "StatefulPartitionedCall/sequential_13_1/time_distributed_11_1/BiasAdd_9/ReadVariableOp", "op": "Const", "attr": {"value": {"tensor": {"dtype": "DT_FLOAT", "tensorShape": {"dim": [{"size": "64"}]}}}, "dtype": {"type": "DT_FLOAT"}}}, {"name": "StatefulPartitionedCall/sequential_13_1/time_distributed_11_1/strided_slice_11/stack", "op": "Const", "attr": {"value": {"tensor": {"dtype": "DT_INT32", "tensorShape": {"dim": [{"size": "1"}]}}}, "dtype": {"type": "DT_INT32"}}}, {"name": "StatefulPartitionedCall/sequential_13_1/time_distributed_11_1/strided_slice_11/stack_1", "op": "Const", "attr": {"value": {"tensor": {"dtype": "DT_INT32", "tensorShape": {"dim": [{"size": "1"}]}}}, "dtype": {"type": "DT_INT32"}}}, {"name": "StatefulPartitionedCall/sequential_13_1/time_distributed_11_1/strided_slice_11/stack_2", "op": "Const", "attr": {"value": {"tensor": {"dtype": "DT_INT32", "tensorShape": {"dim": [{"size": "1"}]}}}, "dtype": {"type": "DT_INT32"}}}, {"name": "StatefulPartitionedCall/sequential_13_1/time_distributed_11_1/Cast_10/ReadVariableOp", "op": "Const", "attr": {"value": {"tensor": {"dtype": "DT_FLOAT", "tensorShape": {"dim": [{"size": "64"}, {"size": "64"}]}}}, "dtype": {"type": "DT_FLOAT"}}}, {"name": "StatefulPartitionedCall/sequential_13_1/time_distributed_11_1/BiasAdd_10/ReadVariableOp", "op": "Const", "attr": {"value": {"tensor": {"dtype": "DT_FLOAT", "tensorShape": {"dim": [{"size": "64"}]}}}, "dtype": {"type": "DT_FLOAT"}}}, {"name": "StatefulPartitionedCall/sequential_13_1/time_distributed_11_1/strided_slice_12/stack", "op": "Const", "attr": {"dtype": {"type": "DT_INT32"}, "value": {"tensor": {"dtype": "DT_INT32", "tensorShape": {"dim": [{"size": "1"}]}}}}}, {"name": "StatefulPartitionedCall/sequential_13_1/time_distributed_11_1/strided_slice_12/stack_1", "op": "Const", "attr": {"value": {"tensor": {"dtype": "DT_INT32", "tensorShape": {"dim": [{"size": "1"}]}}}, "dtype": {"type": "DT_INT32"}}}, {"name": "StatefulPartitionedCall/sequential_13_1/time_distributed_11_1/strided_slice_12/stack_2", "op": "Const", "attr": {"dtype": {"type": "DT_INT32"}, "value": {"tensor": {"dtype": "DT_INT32", "tensorShape": {"dim": [{"size": "1"}]}}}}}, {"name": "StatefulPartitionedCall/sequential_13_1/time_distributed_11_1/Cast_11/ReadVariableOp", "op": "Const", "attr": {"dtype": {"type": "DT_FLOAT"}, "value": {"tensor": {"dtype": "DT_FLOAT", "tensorShape": {"dim": [{"size": "64"}, {"size": "64"}]}}}}}, {"name": "StatefulPartitionedCall/sequential_13_1/time_distributed_11_1/BiasAdd_11/ReadVariableOp", "op": "Const", "attr": {"value": {"tensor": {"dtype": "DT_FLOAT", "tensorShape": {"dim": [{"size": "64"}]}}}, "dtype": {"type": "DT_FLOAT"}}}, {"name": "StatefulPartitionedCall/sequential_13_1/time_distributed_11_1/strided_slice_13/stack", "op": "Const", "attr": {"dtype": {"type": "DT_INT32"}, "value": {"tensor": {"dtype": "DT_INT32", "tensorShape": {"dim": [{"size": "1"}]}}}}}, {"name": "StatefulPartitionedCall/sequential_13_1/time_distributed_11_1/strided_slice_13/stack_1", "op": "Const", "attr": {"value": {"tensor": {"dtype": "DT_INT32", "tensorShape": {"dim": [{"size": "1"}]}}}, "dtype": {"type": "DT_INT32"}}}, {"name": "StatefulPartitionedCall/sequential_13_1/time_distributed_11_1/strided_slice_13/stack_2", "op": "Const", "attr": {"value": {"tensor": {"dtype": "DT_INT32", "tensorShape": {"dim": [{"size": "1"}]}}}, "dtype": {"type": "DT_INT32"}}}, {"name": "StatefulPartitionedCall/sequential_13_1/time_distributed_11_1/Cast_12/ReadVariableOp", "op": "Const", "attr": {"value": {"tensor": {"dtype": "DT_FLOAT", "tensorShape": {"dim": [{"size": "64"}, {"size": "64"}]}}}, "dtype": {"type": "DT_FLOAT"}}}, {"name": "StatefulPartitionedCall/sequential_13_1/time_distributed_11_1/BiasAdd_12/ReadVariableOp", "op": "Const", "attr": {"value": {"tensor": {"dtype": "DT_FLOAT", "tensorShape": {"dim": [{"size": "64"}]}}}, "dtype": {"type": "DT_FLOAT"}}}, {"name": "StatefulPartitionedCall/sequential_13_1/time_distributed_11_1/strided_slice_14/stack", "op": "Const", "attr": {"value": {"tensor": {"dtype": "DT_INT32", "tensorShape": {"dim": [{"size": "1"}]}}}, "dtype": {"type": "DT_INT32"}}}, {"name": "StatefulPartitionedCall/sequential_13_1/time_distributed_11_1/strided_slice_14/stack_1", "op": "Const", "attr": {"value": {"tensor": {"dtype": "DT_INT32", "tensorShape": {"dim": [{"size": "1"}]}}}, "dtype": {"type": "DT_INT32"}}}, {"name": "StatefulPartitionedCall/sequential_13_1/time_distributed_11_1/strided_slice_14/stack_2", "op": "Const", "attr": {"value": {"tensor": {"dtype": "DT_INT32", "tensorShape": {"dim": [{"size": "1"}]}}}, "dtype": {"type": "DT_INT32"}}}, {"name": "StatefulPartitionedCall/sequential_13_1/time_distributed_11_1/Cast_13/ReadVariableOp", "op": "Const", "attr": {"dtype": {"type": "DT_FLOAT"}, "value": {"tensor": {"dtype": "DT_FLOAT", "tensorShape": {"dim": [{"size": "64"}, {"size": "64"}]}}}}}, {"name": "StatefulPartitionedCall/sequential_13_1/time_distributed_11_1/BiasAdd_13/ReadVariableOp", "op": "Const", "attr": {"dtype": {"type": "DT_FLOAT"}, "value": {"tensor": {"dtype": "DT_FLOAT", "tensorShape": {"dim": [{"size": "64"}]}}}}}, {"name": "StatefulPartitionedCall/sequential_13_1/time_distributed_11_1/strided_slice_15/stack", "op": "Const", "attr": {"value": {"tensor": {"dtype": "DT_INT32", "tensorShape": {"dim": [{"size": "1"}]}}}, "dtype": {"type": "DT_INT32"}}}, {"name": "StatefulPartitionedCall/sequential_13_1/time_distributed_11_1/strided_slice_15/stack_1", "op": "Const", "attr": {"value": {"tensor": {"dtype": "DT_INT32", "tensorShape": {"dim": [{"size": "1"}]}}}, "dtype": {"type": "DT_INT32"}}}, {"name": "StatefulPartitionedCall/sequential_13_1/time_distributed_11_1/strided_slice_15/stack_2", "op": "Const", "attr": {"dtype": {"type": "DT_INT32"}, "value": {"tensor": {"dtype": "DT_INT32", "tensorShape": {"dim": [{"size": "1"}]}}}}}, {"name": "StatefulPartitionedCall/sequential_13_1/time_distributed_11_1/Cast_14/ReadVariableOp", "op": "Const", "attr": {"value": {"tensor": {"dtype": "DT_FLOAT", "tensorShape": {"dim": [{"size": "64"}, {"size": "64"}]}}}, "dtype": {"type": "DT_FLOAT"}}}, {"name": "StatefulPartitionedCall/sequential_13_1/time_distributed_11_1/BiasAdd_14/ReadVariableOp", "op": "Const", "attr": {"dtype": {"type": "DT_FLOAT"}, "value": {"tensor": {"dtype": "DT_FLOAT", "tensorShape": {"dim": [{"size": "64"}]}}}}}, {"name": "StatefulPartitionedCall/sequential_13_1/time_distributed_11_1/strided_slice_16/stack", "op": "Const", "attr": {"dtype": {"type": "DT_INT32"}, "value": {"tensor": {"dtype": "DT_INT32", "tensorShape": {"dim": [{"size": "1"}]}}}}}, {"name": "StatefulPartitionedCall/sequential_13_1/time_distributed_11_1/strided_slice_16/stack_1", "op": "Const", "attr": {"value": {"tensor": {"dtype": "DT_INT32", "tensorShape": {"dim": [{"size": "1"}]}}}, "dtype": {"type": "DT_INT32"}}}, {"name": "StatefulPartitionedCall/sequential_13_1/time_distributed_11_1/strided_slice_16/stack_2", "op": "Const", "attr": {"value": {"tensor": {"dtype": "DT_INT32", "tensorShape": {"dim": [{"size": "1"}]}}}, "dtype": {"type": "DT_INT32"}}}, {"name": "StatefulPartitionedCall/sequential_13_1/time_distributed_11_1/Cast_15/ReadVariableOp", "op": "Const", "attr": {"value": {"tensor": {"dtype": "DT_FLOAT", "tensorShape": {"dim": [{"size": "64"}, {"size": "64"}]}}}, "dtype": {"type": "DT_FLOAT"}}}, {"name": "StatefulPartitionedCall/sequential_13_1/time_distributed_11_1/BiasAdd_15/ReadVariableOp", "op": "Const", "attr": {"dtype": {"type": "DT_FLOAT"}, "value": {"tensor": {"dtype": "DT_FLOAT", "tensorShape": {"dim": [{"size": "64"}]}}}}}, {"name": "StatefulPartitionedCall/sequential_13_1/time_distributed_11_1/strided_slice_17/stack", "op": "Const", "attr": {"dtype": {"type": "DT_INT32"}, "value": {"tensor": {"dtype": "DT_INT32", "tensorShape": {"dim": [{"size": "1"}]}}}}}, {"name": "StatefulPartitionedCall/sequential_13_1/time_distributed_11_1/strided_slice_17/stack_1", "op": "Const", "attr": {"dtype": {"type": "DT_INT32"}, "value": {"tensor": {"dtype": "DT_INT32", "tensorShape": {"dim": [{"size": "1"}]}}}}}, {"name": "StatefulPartitionedCall/sequential_13_1/time_distributed_11_1/strided_slice_17/stack_2", "op": "Const", "attr": {"value": {"tensor": {"dtype": "DT_INT32", "tensorShape": {"dim": [{"size": "1"}]}}}, "dtype": {"type": "DT_INT32"}}}, {"name": "StatefulPartitionedCall/sequential_13_1/time_distributed_11_1/Cast_16/ReadVariableOp", "op": "Const", "attr": {"value": {"tensor": {"dtype": "DT_FLOAT", "tensorShape": {"dim": [{"size": "64"}, {"size": "64"}]}}}, "dtype": {"type": "DT_FLOAT"}}}, {"name": "StatefulPartitionedCall/sequential_13_1/time_distributed_11_1/BiasAdd_16/ReadVariableOp", "op": "Const", "attr": {"dtype": {"type": "DT_FLOAT"}, "value": {"tensor": {"dtype": "DT_FLOAT", "tensorShape": {"dim": [{"size": "64"}]}}}}}, {"name": "StatefulPartitionedCall/sequential_13_1/time_distributed_11_1/strided_slice_18/stack", "op": "Const", "attr": {"value": {"tensor": {"dtype": "DT_INT32", "tensorShape": {"dim": [{"size": "1"}]}}}, "dtype": {"type": "DT_INT32"}}}, {"name": "StatefulPartitionedCall/sequential_13_1/time_distributed_11_1/strided_slice_18/stack_1", "op": "Const", "attr": {"dtype": {"type": "DT_INT32"}, "value": {"tensor": {"dtype": "DT_INT32", "tensorShape": {"dim": [{"size": "1"}]}}}}}, {"name": "StatefulPartitionedCall/sequential_13_1/time_distributed_11_1/strided_slice_18/stack_2", "op": "Const", "attr": {"value": {"tensor": {"dtype": "DT_INT32", "tensorShape": {"dim": [{"size": "1"}]}}}, "dtype": {"type": "DT_INT32"}}}, {"name": "StatefulPartitionedCall/sequential_13_1/time_distributed_11_1/Cast_17/ReadVariableOp", "op": "Const", "attr": {"dtype": {"type": "DT_FLOAT"}, "value": {"tensor": {"dtype": "DT_FLOAT", "tensorShape": {"dim": [{"size": "64"}, {"size": "64"}]}}}}}, {"name": "StatefulPartitionedCall/sequential_13_1/time_distributed_11_1/BiasAdd_17/ReadVariableOp", "op": "Const", "attr": {"value": {"tensor": {"dtype": "DT_FLOAT", "tensorShape": {"dim": [{"size": "64"}]}}}, "dtype": {"type": "DT_FLOAT"}}}, {"name": "StatefulPartitionedCall/sequential_13_1/time_distributed_11_1/strided_slice_19/stack", "op": "Const", "attr": {"value": {"tensor": {"dtype": "DT_INT32", "tensorShape": {"dim": [{"size": "1"}]}}}, "dtype": {"type": "DT_INT32"}}}, {"name": "StatefulPartitionedCall/sequential_13_1/time_distributed_11_1/strided_slice_19/stack_1", "op": "Const", "attr": {"dtype": {"type": "DT_INT32"}, "value": {"tensor": {"dtype": "DT_INT32", "tensorShape": {"dim": [{"size": "1"}]}}}}}, {"name": "StatefulPartitionedCall/sequential_13_1/time_distributed_11_1/strided_slice_19/stack_2", "op": "Const", "attr": {"value": {"tensor": {"dtype": "DT_INT32", "tensorShape": {"dim": [{"size": "1"}]}}}, "dtype": {"type": "DT_INT32"}}}, {"name": "StatefulPartitionedCall/sequential_13_1/time_distributed_11_1/Cast_18/ReadVariableOp", "op": "Const", "attr": {"value": {"tensor": {"dtype": "DT_FLOAT", "tensorShape": {"dim": [{"size": "64"}, {"size": "64"}]}}}, "dtype": {"type": "DT_FLOAT"}}}, {"name": "StatefulPartitionedCall/sequential_13_1/time_distributed_11_1/BiasAdd_18/ReadVariableOp", "op": "Const", "attr": {"value": {"tensor": {"dtype": "DT_FLOAT", "tensorShape": {"dim": [{"size": "64"}]}}}, "dtype": {"type": "DT_FLOAT"}}}, {"name": "StatefulPartitionedCall/sequential_13_1/time_distributed_11_1/strided_slice_20/stack", "op": "Const", "attr": {"value": {"tensor": {"dtype": "DT_INT32", "tensorShape": {"dim": [{"size": "1"}]}}}, "dtype": {"type": "DT_INT32"}}}, {"name": "StatefulPartitionedCall/sequential_13_1/time_distributed_11_1/strided_slice_20/stack_1", "op": "Const", "attr": {"dtype": {"type": "DT_INT32"}, "value": {"tensor": {"dtype": "DT_INT32", "tensorShape": {"dim": [{"size": "1"}]}}}}}, {"name": "StatefulPartitionedCall/sequential_13_1/time_distributed_11_1/strided_slice_20/stack_2", "op": "Const", "attr": {"value": {"tensor": {"dtype": "DT_INT32", "tensorShape": {"dim": [{"size": "1"}]}}}, "dtype": {"type": "DT_INT32"}}}, {"name": "StatefulPartitionedCall/sequential_13_1/time_distributed_11_1/Cast_19/ReadVariableOp", "op": "Const", "attr": {"value": {"tensor": {"dtype": "DT_FLOAT", "tensorShape": {"dim": [{"size": "64"}, {"size": "64"}]}}}, "dtype": {"type": "DT_FLOAT"}}}, {"name": "StatefulPartitionedCall/sequential_13_1/time_distributed_11_1/BiasAdd_19/ReadVariableOp", "op": "Const", "attr": {"value": {"tensor": {"dtype": "DT_FLOAT", "tensorShape": {"dim": [{"size": "64"}]}}}, "dtype": {"type": "DT_FLOAT"}}}, {"name": "StatefulPartitionedCall/sequential_13_1/time_distributed_11_1/strided_slice_21/stack", "op": "Const", "attr": {"value": {"tensor": {"dtype": "DT_INT32", "tensorShape": {"dim": [{"size": "1"}]}}}, "dtype": {"type": "DT_INT32"}}}, {"name": "StatefulPartitionedCall/sequential_13_1/time_distributed_11_1/strided_slice_21/stack_1", "op": "Const", "attr": {"dtype": {"type": "DT_INT32"}, "value": {"tensor": {"dtype": "DT_INT32", "tensorShape": {"dim": [{"size": "1"}]}}}}}, {"name": "StatefulPartitionedCall/sequential_13_1/time_distributed_11_1/strided_slice_21/stack_2", "op": "Const", "attr": {"dtype": {"type": "DT_INT32"}, "value": {"tensor": {"dtype": "DT_INT32", "tensorShape": {"dim": [{"size": "1"}]}}}}}, {"name": "StatefulPartitionedCall/sequential_13_1/time_distributed_11_1/Cast_20/ReadVariableOp", "op": "Const", "attr": {"dtype": {"type": "DT_FLOAT"}, "value": {"tensor": {"dtype": "DT_FLOAT", "tensorShape": {"dim": [{"size": "64"}, {"size": "64"}]}}}}}, {"name": "StatefulPartitionedCall/sequential_13_1/time_distributed_11_1/BiasAdd_20/ReadVariableOp", "op": "Const", "attr": {"value": {"tensor": {"dtype": "DT_FLOAT", "tensorShape": {"dim": [{"size": "64"}]}}}, "dtype": {"type": "DT_FLOAT"}}}, {"name": "StatefulPartitionedCall/sequential_13_1/time_distributed_11_1/strided_slice_22/stack", "op": "Const", "attr": {"value": {"tensor": {"dtype": "DT_INT32", "tensorShape": {"dim": [{"size": "1"}]}}}, "dtype": {"type": "DT_INT32"}}}, {"name": "StatefulPartitionedCall/sequential_13_1/time_distributed_11_1/strided_slice_22/stack_1", "op": "Const", "attr": {"value": {"tensor": {"dtype": "DT_INT32", "tensorShape": {"dim": [{"size": "1"}]}}}, "dtype": {"type": "DT_INT32"}}}, {"name": "StatefulPartitionedCall/sequential_13_1/time_distributed_11_1/strided_slice_22/stack_2", "op": "Const", "attr": {"value": {"tensor": {"dtype": "DT_INT32", "tensorShape": {"dim": [{"size": "1"}]}}}, "dtype": {"type": "DT_INT32"}}}, {"name": "StatefulPartitionedCall/sequential_13_1/time_distributed_11_1/Cast_21/ReadVariableOp", "op": "Const", "attr": {"dtype": {"type": "DT_FLOAT"}, "value": {"tensor": {"dtype": "DT_FLOAT", "tensorShape": {"dim": [{"size": "64"}, {"size": "64"}]}}}}}, {"name": "StatefulPartitionedCall/sequential_13_1/time_distributed_11_1/BiasAdd_21/ReadVariableOp", "op": "Const", "attr": {"dtype": {"type": "DT_FLOAT"}, "value": {"tensor": {"dtype": "DT_FLOAT", "tensorShape": {"dim": [{"size": "64"}]}}}}}, {"name": "StatefulPartitionedCall/sequential_13_1/time_distributed_11_1/strided_slice_23/stack", "op": "Const", "attr": {"value": {"tensor": {"dtype": "DT_INT32", "tensorShape": {"dim": [{"size": "1"}]}}}, "dtype": {"type": "DT_INT32"}}}, {"name": "StatefulPartitionedCall/sequential_13_1/time_distributed_11_1/strided_slice_23/stack_1", "op": "Const", "attr": {"value": {"tensor": {"dtype": "DT_INT32", "tensorShape": {"dim": [{"size": "1"}]}}}, "dtype": {"type": "DT_INT32"}}}, {"name": "StatefulPartitionedCall/sequential_13_1/time_distributed_11_1/strided_slice_23/stack_2", "op": "Const", "attr": {"dtype": {"type": "DT_INT32"}, "value": {"tensor": {"dtype": "DT_INT32", "tensorShape": {"dim": [{"size": "1"}]}}}}}, {"name": "StatefulPartitionedCall/sequential_13_1/time_distributed_11_1/Cast_22/ReadVariableOp", "op": "Const", "attr": {"value": {"tensor": {"dtype": "DT_FLOAT", "tensorShape": {"dim": [{"size": "64"}, {"size": "64"}]}}}, "dtype": {"type": "DT_FLOAT"}}}, {"name": "StatefulPartitionedCall/sequential_13_1/time_distributed_11_1/BiasAdd_22/ReadVariableOp", "op": "Const", "attr": {"value": {"tensor": {"dtype": "DT_FLOAT", "tensorShape": {"dim": [{"size": "64"}]}}}, "dtype": {"type": "DT_FLOAT"}}}, {"name": "StatefulPartitionedCall/sequential_13_1/time_distributed_11_1/strided_slice_24/stack", "op": "Const", "attr": {"dtype": {"type": "DT_INT32"}, "value": {"tensor": {"dtype": "DT_INT32", "tensorShape": {"dim": [{"size": "1"}]}}}}}, {"name": "StatefulPartitionedCall/sequential_13_1/time_distributed_11_1/strided_slice_24/stack_1", "op": "Const", "attr": {"dtype": {"type": "DT_INT32"}, "value": {"tensor": {"dtype": "DT_INT32", "tensorShape": {"dim": [{"size": "1"}]}}}}}, {"name": "StatefulPartitionedCall/sequential_13_1/time_distributed_11_1/strided_slice_24/stack_2", "op": "Const", "attr": {"dtype": {"type": "DT_INT32"}, "value": {"tensor": {"dtype": "DT_INT32", "tensorShape": {"dim": [{"size": "1"}]}}}}}, {"name": "StatefulPartitionedCall/sequential_13_1/time_distributed_11_1/Cast_23/ReadVariableOp", "op": "Const", "attr": {"value": {"tensor": {"dtype": "DT_FLOAT", "tensorShape": {"dim": [{"size": "64"}, {"size": "64"}]}}}, "dtype": {"type": "DT_FLOAT"}}}, {"name": "StatefulPartitionedCall/sequential_13_1/time_distributed_11_1/BiasAdd_23/ReadVariableOp", "op": "Const", "attr": {"value": {"tensor": {"dtype": "DT_FLOAT", "tensorShape": {"dim": [{"size": "64"}]}}}, "dtype": {"type": "DT_FLOAT"}}}, {"name": "StatefulPartitionedCall/sequential_13_1/time_distributed_11_1/strided_slice_25/stack", "op": "Const", "attr": {"dtype": {"type": "DT_INT32"}, "value": {"tensor": {"dtype": "DT_INT32", "tensorShape": {"dim": [{"size": "1"}]}}}}}, {"name": "StatefulPartitionedCall/sequential_13_1/time_distributed_11_1/strided_slice_25/stack_1", "op": "Const", "attr": {"value": {"tensor": {"dtype": "DT_INT32", "tensorShape": {"dim": [{"size": "1"}]}}}, "dtype": {"type": "DT_INT32"}}}, {"name": "StatefulPartitionedCall/sequential_13_1/time_distributed_11_1/strided_slice_25/stack_2", "op": "Const", "attr": {"value": {"tensor": {"dtype": "DT_INT32", "tensorShape": {"dim": [{"size": "1"}]}}}, "dtype": {"type": "DT_INT32"}}}, {"name": "StatefulPartitionedCall/sequential_13_1/time_distributed_11_1/Cast_24/ReadVariableOp", "op": "Const", "attr": {"dtype": {"type": "DT_FLOAT"}, "value": {"tensor": {"dtype": "DT_FLOAT", "tensorShape": {"dim": [{"size": "64"}, {"size": "64"}]}}}}}, {"name": "StatefulPartitionedCall/sequential_13_1/time_distributed_11_1/BiasAdd_24/ReadVariableOp", "op": "Const", "attr": {"value": {"tensor": {"dtype": "DT_FLOAT", "tensorShape": {"dim": [{"size": "64"}]}}}, "dtype": {"type": "DT_FLOAT"}}}, {"name": "StatefulPartitionedCall/sequential_13_1/time_distributed_11_1/strided_slice_26/stack", "op": "Const", "attr": {"dtype": {"type": "DT_INT32"}, "value": {"tensor": {"dtype": "DT_INT32", "tensorShape": {"dim": [{"size": "1"}]}}}}}, {"name": "StatefulPartitionedCall/sequential_13_1/time_distributed_11_1/strided_slice_26/stack_1", "op": "Const", "attr": {"dtype": {"type": "DT_INT32"}, "value": {"tensor": {"dtype": "DT_INT32", "tensorShape": {"dim": [{"size": "1"}]}}}}}, {"name": "StatefulPartitionedCall/sequential_13_1/time_distributed_11_1/strided_slice_26/stack_2", "op": "Const", "attr": {"dtype": {"type": "DT_INT32"}, "value": {"tensor": {"dtype": "DT_INT32", "tensorShape": {"dim": [{"size": "1"}]}}}}}, {"name": "StatefulPartitionedCall/sequential_13_1/time_distributed_11_1/Cast_25/ReadVariableOp", "op": "Const", "attr": {"value": {"tensor": {"dtype": "DT_FLOAT", "tensorShape": {"dim": [{"size": "64"}, {"size": "64"}]}}}, "dtype": {"type": "DT_FLOAT"}}}, {"name": "StatefulPartitionedCall/sequential_13_1/time_distributed_11_1/BiasAdd_25/ReadVariableOp", "op": "Const", "attr": {"dtype": {"type": "DT_FLOAT"}, "value": {"tensor": {"dtype": "DT_FLOAT", "tensorShape": {"dim": [{"size": "64"}]}}}}}, {"name": "StatefulPartitionedCall/sequential_13_1/time_distributed_11_1/strided_slice_27/stack", "op": "Const", "attr": {"value": {"tensor": {"dtype": "DT_INT32", "tensorShape": {"dim": [{"size": "1"}]}}}, "dtype": {"type": "DT_INT32"}}}, {"name": "StatefulPartitionedCall/sequential_13_1/time_distributed_11_1/strided_slice_27/stack_1", "op": "Const", "attr": {"value": {"tensor": {"dtype": "DT_INT32", "tensorShape": {"dim": [{"size": "1"}]}}}, "dtype": {"type": "DT_INT32"}}}, {"name": "StatefulPartitionedCall/sequential_13_1/time_distributed_11_1/strided_slice_27/stack_2", "op": "Const", "attr": {"value": {"tensor": {"dtype": "DT_INT32", "tensorShape": {"dim": [{"size": "1"}]}}}, "dtype": {"type": "DT_INT32"}}}, {"name": "StatefulPartitionedCall/sequential_13_1/time_distributed_11_1/Cast_26/ReadVariableOp", "op": "Const", "attr": {"dtype": {"type": "DT_FLOAT"}, "value": {"tensor": {"dtype": "DT_FLOAT", "tensorShape": {"dim": [{"size": "64"}, {"size": "64"}]}}}}}, {"name": "StatefulPartitionedCall/sequential_13_1/time_distributed_11_1/BiasAdd_26/ReadVariableOp", "op": "Const", "attr": {"dtype": {"type": "DT_FLOAT"}, "value": {"tensor": {"dtype": "DT_FLOAT", "tensorShape": {"dim": [{"size": "64"}]}}}}}, {"name": "StatefulPartitionedCall/sequential_13_1/time_distributed_11_1/strided_slice_28/stack", "op": "Const", "attr": {"value": {"tensor": {"dtype": "DT_INT32", "tensorShape": {"dim": [{"size": "1"}]}}}, "dtype": {"type": "DT_INT32"}}}, {"name": "StatefulPartitionedCall/sequential_13_1/time_distributed_11_1/strided_slice_28/stack_1", "op": "Const", "attr": {"value": {"tensor": {"dtype": "DT_INT32", "tensorShape": {"dim": [{"size": "1"}]}}}, "dtype": {"type": "DT_INT32"}}}, {"name": "StatefulPartitionedCall/sequential_13_1/time_distributed_11_1/strided_slice_28/stack_2", "op": "Const", "attr": {"dtype": {"type": "DT_INT32"}, "value": {"tensor": {"dtype": "DT_INT32", "tensorShape": {"dim": [{"size": "1"}]}}}}}, {"name": "StatefulPartitionedCall/sequential_13_1/time_distributed_11_1/Cast_27/ReadVariableOp", "op": "Const", "attr": {"value": {"tensor": {"dtype": "DT_FLOAT", "tensorShape": {"dim": [{"size": "64"}, {"size": "64"}]}}}, "dtype": {"type": "DT_FLOAT"}}}, {"name": "StatefulPartitionedCall/sequential_13_1/time_distributed_11_1/BiasAdd_27/ReadVariableOp", "op": "Const", "attr": {"dtype": {"type": "DT_FLOAT"}, "value": {"tensor": {"dtype": "DT_FLOAT", "tensorShape": {"dim": [{"size": "64"}]}}}}}, {"name": "StatefulPartitionedCall/sequential_13_1/time_distributed_11_1/strided_slice_29/stack", "op": "Const", "attr": {"dtype": {"type": "DT_INT32"}, "value": {"tensor": {"dtype": "DT_INT32", "tensorShape": {"dim": [{"size": "1"}]}}}}}, {"name": "StatefulPartitionedCall/sequential_13_1/time_distributed_11_1/strided_slice_29/stack_1", "op": "Const", "attr": {"dtype": {"type": "DT_INT32"}, "value": {"tensor": {"dtype": "DT_INT32", "tensorShape": {"dim": [{"size": "1"}]}}}}}, {"name": "StatefulPartitionedCall/sequential_13_1/time_distributed_11_1/strided_slice_29/stack_2", "op": "Const", "attr": {"value": {"tensor": {"dtype": "DT_INT32", "tensorShape": {"dim": [{"size": "1"}]}}}, "dtype": {"type": "DT_INT32"}}}, {"name": "StatefulPartitionedCall/sequential_13_1/time_distributed_11_1/Cast_28/ReadVariableOp", "op": "Const", "attr": {"value": {"tensor": {"dtype": "DT_FLOAT", "tensorShape": {"dim": [{"size": "64"}, {"size": "64"}]}}}, "dtype": {"type": "DT_FLOAT"}}}, {"name": "StatefulPartitionedCall/sequential_13_1/time_distributed_11_1/BiasAdd_28/ReadVariableOp", "op": "Const", "attr": {"value": {"tensor": {"dtype": "DT_FLOAT", "tensorShape": {"dim": [{"size": "64"}]}}}, "dtype": {"type": "DT_FLOAT"}}}, {"name": "StatefulPartitionedCall/sequential_13_1/time_distributed_11_1/strided_slice_30/stack", "op": "Const", "attr": {"dtype": {"type": "DT_INT32"}, "value": {"tensor": {"dtype": "DT_INT32", "tensorShape": {"dim": [{"size": "1"}]}}}}}, {"name": "StatefulPartitionedCall/sequential_13_1/time_distributed_11_1/strided_slice_30/stack_1", "op": "Const", "attr": {"dtype": {"type": "DT_INT32"}, "value": {"tensor": {"dtype": "DT_INT32", "tensorShape": {"dim": [{"size": "1"}]}}}}}, {"name": "StatefulPartitionedCall/sequential_13_1/time_distributed_11_1/strided_slice_30/stack_2", "op": "Const", "attr": {"dtype": {"type": "DT_INT32"}, "value": {"tensor": {"dtype": "DT_INT32", "tensorShape": {"dim": [{"size": "1"}]}}}}}, {"name": "StatefulPartitionedCall/sequential_13_1/time_distributed_11_1/Cast_29/ReadVariableOp", "op": "Const", "attr": {"dtype": {"type": "DT_FLOAT"}, "value": {"tensor": {"dtype": "DT_FLOAT", "tensorShape": {"dim": [{"size": "64"}, {"size": "64"}]}}}}}, {"name": "StatefulPartitionedCall/sequential_13_1/time_distributed_11_1/BiasAdd_29/ReadVariableOp", "op": "Const", "attr": {"value": {"tensor": {"dtype": "DT_FLOAT", "tensorShape": {"dim": [{"size": "64"}]}}}, "dtype": {"type": "DT_FLOAT"}}}, {"name": "StatefulPartitionedCall/sequential_13_1/time_distributed_11_1/strided_slice_31/stack", "op": "Const", "attr": {"value": {"tensor": {"dtype": "DT_INT32", "tensorShape": {"dim": [{"size": "1"}]}}}, "dtype": {"type": "DT_INT32"}}}, {"name": "StatefulPartitionedCall/sequential_13_1/time_distributed_11_1/strided_slice_31/stack_1", "op": "Const", "attr": {"value": {"tensor": {"dtype": "DT_INT32", "tensorShape": {"dim": [{"size": "1"}]}}}, "dtype": {"type": "DT_INT32"}}}, {"name": "StatefulPartitionedCall/sequential_13_1/time_distributed_11_1/strided_slice_31/stack_2", "op": "Const", "attr": {"dtype": {"type": "DT_INT32"}, "value": {"tensor": {"dtype": "DT_INT32", "tensorShape": {"dim": [{"size": "1"}]}}}}}, {"name": "StatefulPartitionedCall/sequential_13_1/time_distributed_11_1/Cast_30/ReadVariableOp", "op": "Const", "attr": {"value": {"tensor": {"dtype": "DT_FLOAT", "tensorShape": {"dim": [{"size": "64"}, {"size": "64"}]}}}, "dtype": {"type": "DT_FLOAT"}}}, {"name": "StatefulPartitionedCall/sequential_13_1/time_distributed_11_1/BiasAdd_30/ReadVariableOp", "op": "Const", "attr": {"dtype": {"type": "DT_FLOAT"}, "value": {"tensor": {"dtype": "DT_FLOAT", "tensorShape": {"dim": [{"size": "64"}]}}}}}, {"name": "StatefulPartitionedCall/sequential_13_1/time_distributed_11_1/strided_slice_32/stack", "op": "Const", "attr": {"value": {"tensor": {"dtype": "DT_INT32", "tensorShape": {"dim": [{"size": "1"}]}}}, "dtype": {"type": "DT_INT32"}}}, {"name": "StatefulPartitionedCall/sequential_13_1/time_distributed_11_1/strided_slice_32/stack_1", "op": "Const", "attr": {"dtype": {"type": "DT_INT32"}, "value": {"tensor": {"dtype": "DT_INT32", "tensorShape": {"dim": [{"size": "1"}]}}}}}, {"name": "StatefulPartitionedCall/sequential_13_1/time_distributed_11_1/strided_slice_32/stack_2", "op": "Const", "attr": {"dtype": {"type": "DT_INT32"}, "value": {"tensor": {"dtype": "DT_INT32", "tensorShape": {"dim": [{"size": "1"}]}}}}}, {"name": "StatefulPartitionedCall/sequential_13_1/time_distributed_11_1/Cast_31/ReadVariableOp", "op": "Const", "attr": {"value": {"tensor": {"dtype": "DT_FLOAT", "tensorShape": {"dim": [{"size": "64"}, {"size": "64"}]}}}, "dtype": {"type": "DT_FLOAT"}}}, {"name": "StatefulPartitionedCall/sequential_13_1/time_distributed_11_1/BiasAdd_31/ReadVariableOp", "op": "Const", "attr": {"value": {"tensor": {"dtype": "DT_FLOAT", "tensorShape": {"dim": [{"size": "64"}]}}}, "dtype": {"type": "DT_FLOAT"}}}, {"name": "StatefulPartitionedCall/sequential_13_1/time_distributed_11_1/strided_slice_33/stack", "op": "Const", "attr": {"dtype": {"type": "DT_INT32"}, "value": {"tensor": {"dtype": "DT_INT32", "tensorShape": {"dim": [{"size": "1"}]}}}}}, {"name": "StatefulPartitionedCall/sequential_13_1/time_distributed_11_1/strided_slice_33/stack_1", "op": "Const", "attr": {"dtype": {"type": "DT_INT32"}, "value": {"tensor": {"dtype": "DT_INT32", "tensorShape": {"dim": [{"size": "1"}]}}}}}, {"name": "StatefulPartitionedCall/sequential_13_1/time_distributed_11_1/strided_slice_33/stack_2", "op": "Const", "attr": {"dtype": {"type": "DT_INT32"}, "value": {"tensor": {"dtype": "DT_INT32", "tensorShape": {"dim": [{"size": "1"}]}}}}}, {"name": "StatefulPartitionedCall/sequential_13_1/time_distributed_11_1/Cast_32/ReadVariableOp", "op": "Const", "attr": {"value": {"tensor": {"dtype": "DT_FLOAT", "tensorShape": {"dim": [{"size": "64"}, {"size": "64"}]}}}, "dtype": {"type": "DT_FLOAT"}}}, {"name": "StatefulPartitionedCall/sequential_13_1/time_distributed_11_1/BiasAdd_32/ReadVariableOp", "op": "Const", "attr": {"value": {"tensor": {"dtype": "DT_FLOAT", "tensorShape": {"dim": [{"size": "64"}]}}}, "dtype": {"type": "DT_FLOAT"}}}, {"name": "StatefulPartitionedCall/sequential_13_1/time_distributed_11_1/strided_slice_34/stack", "op": "Const", "attr": {"value": {"tensor": {"dtype": "DT_INT32", "tensorShape": {"dim": [{"size": "1"}]}}}, "dtype": {"type": "DT_INT32"}}}, {"name": "StatefulPartitionedCall/sequential_13_1/time_distributed_11_1/strided_slice_34/stack_1", "op": "Const", "attr": {"dtype": {"type": "DT_INT32"}, "value": {"tensor": {"dtype": "DT_INT32", "tensorShape": {"dim": [{"size": "1"}]}}}}}, {"name": "StatefulPartitionedCall/sequential_13_1/time_distributed_11_1/strided_slice_34/stack_2", "op": "Const", "attr": {"dtype": {"type": "DT_INT32"}, "value": {"tensor": {"dtype": "DT_INT32", "tensorShape": {"dim": [{"size": "1"}]}}}}}, {"name": "StatefulPartitionedCall/sequential_13_1/time_distributed_11_1/Cast_33/ReadVariableOp", "op": "Const", "attr": {"dtype": {"type": "DT_FLOAT"}, "value": {"tensor": {"dtype": "DT_FLOAT", "tensorShape": {"dim": [{"size": "64"}, {"size": "64"}]}}}}}, {"name": "StatefulPartitionedCall/sequential_13_1/time_distributed_11_1/BiasAdd_33/ReadVariableOp", "op": "Const", "attr": {"dtype": {"type": "DT_FLOAT"}, "value": {"tensor": {"dtype": "DT_FLOAT", "tensorShape": {"dim": [{"size": "64"}]}}}}}, {"name": "StatefulPartitionedCall/sequential_13_1/time_distributed_11_1/strided_slice_35/stack", "op": "Const", "attr": {"dtype": {"type": "DT_INT32"}, "value": {"tensor": {"dtype": "DT_INT32", "tensorShape": {"dim": [{"size": "1"}]}}}}}, {"name": "StatefulPartitionedCall/sequential_13_1/time_distributed_11_1/strided_slice_35/stack_1", "op": "Const", "attr": {"dtype": {"type": "DT_INT32"}, "value": {"tensor": {"dtype": "DT_INT32", "tensorShape": {"dim": [{"size": "1"}]}}}}}, {"name": "StatefulPartitionedCall/sequential_13_1/time_distributed_11_1/strided_slice_35/stack_2", "op": "Const", "attr": {"value": {"tensor": {"dtype": "DT_INT32", "tensorShape": {"dim": [{"size": "1"}]}}}, "dtype": {"type": "DT_INT32"}}}, {"name": "StatefulPartitionedCall/sequential_13_1/time_distributed_11_1/Cast_34/ReadVariableOp", "op": "Const", "attr": {"dtype": {"type": "DT_FLOAT"}, "value": {"tensor": {"dtype": "DT_FLOAT", "tensorShape": {"dim": [{"size": "64"}, {"size": "64"}]}}}}}, {"name": "StatefulPartitionedCall/sequential_13_1/time_distributed_11_1/BiasAdd_34/ReadVariableOp", "op": "Const", "attr": {"dtype": {"type": "DT_FLOAT"}, "value": {"tensor": {"dtype": "DT_FLOAT", "tensorShape": {"dim": [{"size": "64"}]}}}}}, {"name": "StatefulPartitionedCall/sequential_13_1/time_distributed_11_1/strided_slice_36/stack", "op": "Const", "attr": {"dtype": {"type": "DT_INT32"}, "value": {"tensor": {"dtype": "DT_INT32", "tensorShape": {"dim": [{"size": "1"}]}}}}}, {"name": "StatefulPartitionedCall/sequential_13_1/time_distributed_11_1/strided_slice_36/stack_1", "op": "Const", "attr": {"dtype": {"type": "DT_INT32"}, "value": {"tensor": {"dtype": "DT_INT32", "tensorShape": {"dim": [{"size": "1"}]}}}}}, {"name": "StatefulPartitionedCall/sequential_13_1/time_distributed_11_1/strided_slice_36/stack_2", "op": "Const", "attr": {"value": {"tensor": {"dtype": "DT_INT32", "tensorShape": {"dim": [{"size": "1"}]}}}, "dtype": {"type": "DT_INT32"}}}, {"name": "StatefulPartitionedCall/sequential_13_1/time_distributed_11_1/Cast_35/ReadVariableOp", "op": "Const", "attr": {"dtype": {"type": "DT_FLOAT"}, "value": {"tensor": {"dtype": "DT_FLOAT", "tensorShape": {"dim": [{"size": "64"}, {"size": "64"}]}}}}}, {"name": "StatefulPartitionedCall/sequential_13_1/time_distributed_11_1/BiasAdd_35/ReadVariableOp", "op": "Const", "attr": {"value": {"tensor": {"dtype": "DT_FLOAT", "tensorShape": {"dim": [{"size": "64"}]}}}, "dtype": {"type": "DT_FLOAT"}}}, {"name": "StatefulPartitionedCall/sequential_13_1/time_distributed_11_1/strided_slice_37/stack", "op": "Const", "attr": {"value": {"tensor": {"dtype": "DT_INT32", "tensorShape": {"dim": [{"size": "1"}]}}}, "dtype": {"type": "DT_INT32"}}}, {"name": "StatefulPartitionedCall/sequential_13_1/time_distributed_11_1/strided_slice_37/stack_1", "op": "Const", "attr": {"dtype": {"type": "DT_INT32"}, "value": {"tensor": {"dtype": "DT_INT32", "tensorShape": {"dim": [{"size": "1"}]}}}}}, {"name": "StatefulPartitionedCall/sequential_13_1/time_distributed_11_1/strided_slice_37/stack_2", "op": "Const", "attr": {"value": {"tensor": {"dtype": "DT_INT32", "tensorShape": {"dim": [{"size": "1"}]}}}, "dtype": {"type": "DT_INT32"}}}, {"name": "StatefulPartitionedCall/sequential_13_1/time_distributed_11_1/Cast_36/ReadVariableOp", "op": "Const", "attr": {"dtype": {"type": "DT_FLOAT"}, "value": {"tensor": {"dtype": "DT_FLOAT", "tensorShape": {"dim": [{"size": "64"}, {"size": "64"}]}}}}}, {"name": "StatefulPartitionedCall/sequential_13_1/time_distributed_11_1/BiasAdd_36/ReadVariableOp", "op": "Const", "attr": {"dtype": {"type": "DT_FLOAT"}, "value": {"tensor": {"dtype": "DT_FLOAT", "tensorShape": {"dim": [{"size": "64"}]}}}}}, {"name": "StatefulPartitionedCall/sequential_13_1/time_distributed_11_1/strided_slice_38/stack", "op": "Const", "attr": {"dtype": {"type": "DT_INT32"}, "value": {"tensor": {"dtype": "DT_INT32", "tensorShape": {"dim": [{"size": "1"}]}}}}}, {"name": "StatefulPartitionedCall/sequential_13_1/time_distributed_11_1/strided_slice_38/stack_1", "op": "Const", "attr": {"value": {"tensor": {"dtype": "DT_INT32", "tensorShape": {"dim": [{"size": "1"}]}}}, "dtype": {"type": "DT_INT32"}}}, {"name": "StatefulPartitionedCall/sequential_13_1/time_distributed_11_1/strided_slice_38/stack_2", "op": "Const", "attr": {"value": {"tensor": {"dtype": "DT_INT32", "tensorShape": {"dim": [{"size": "1"}]}}}, "dtype": {"type": "DT_INT32"}}}, {"name": "StatefulPartitionedCall/sequential_13_1/time_distributed_11_1/Cast_37/ReadVariableOp", "op": "Const", "attr": {"value": {"tensor": {"dtype": "DT_FLOAT", "tensorShape": {"dim": [{"size": "64"}, {"size": "64"}]}}}, "dtype": {"type": "DT_FLOAT"}}}, {"name": "StatefulPartitionedCall/sequential_13_1/time_distributed_11_1/BiasAdd_37/ReadVariableOp", "op": "Const", "attr": {"value": {"tensor": {"dtype": "DT_FLOAT", "tensorShape": {"dim": [{"size": "64"}]}}}, "dtype": {"type": "DT_FLOAT"}}}, {"name": "StatefulPartitionedCall/sequential_13_1/time_distributed_11_1/strided_slice_39/stack", "op": "Const", "attr": {"dtype": {"type": "DT_INT32"}, "value": {"tensor": {"dtype": "DT_INT32", "tensorShape": {"dim": [{"size": "1"}]}}}}}, {"name": "StatefulPartitionedCall/sequential_13_1/time_distributed_11_1/strided_slice_39/stack_1", "op": "Const", "attr": {"value": {"tensor": {"dtype": "DT_INT32", "tensorShape": {"dim": [{"size": "1"}]}}}, "dtype": {"type": "DT_INT32"}}}, {"name": "StatefulPartitionedCall/sequential_13_1/time_distributed_11_1/strided_slice_39/stack_2", "op": "Const", "attr": {"dtype": {"type": "DT_INT32"}, "value": {"tensor": {"dtype": "DT_INT32", "tensorShape": {"dim": [{"size": "1"}]}}}}}, {"name": "StatefulPartitionedCall/sequential_13_1/time_distributed_11_1/Cast_38/ReadVariableOp", "op": "Const", "attr": {"dtype": {"type": "DT_FLOAT"}, "value": {"tensor": {"dtype": "DT_FLOAT", "tensorShape": {"dim": [{"size": "64"}, {"size": "64"}]}}}}}, {"name": "StatefulPartitionedCall/sequential_13_1/time_distributed_11_1/BiasAdd_38/ReadVariableOp", "op": "Const", "attr": {"value": {"tensor": {"dtype": "DT_FLOAT", "tensorShape": {"dim": [{"size": "64"}]}}}, "dtype": {"type": "DT_FLOAT"}}}, {"name": "StatefulPartitionedCall/sequential_13_1/time_distributed_11_1/strided_slice_40/stack", "op": "Const", "attr": {"dtype": {"type": "DT_INT32"}, "value": {"tensor": {"dtype": "DT_INT32", "tensorShape": {"dim": [{"size": "1"}]}}}}}, {"name": "StatefulPartitionedCall/sequential_13_1/time_distributed_11_1/strided_slice_40/stack_1", "op": "Const", "attr": {"dtype": {"type": "DT_INT32"}, "value": {"tensor": {"dtype": "DT_INT32", "tensorShape": {"dim": [{"size": "1"}]}}}}}, {"name": "StatefulPartitionedCall/sequential_13_1/time_distributed_11_1/strided_slice_40/stack_2", "op": "Const", "attr": {"value": {"tensor": {"dtype": "DT_INT32", "tensorShape": {"dim": [{"size": "1"}]}}}, "dtype": {"type": "DT_INT32"}}}, {"name": "StatefulPartitionedCall/sequential_13_1/time_distributed_11_1/Cast_39/ReadVariableOp", "op": "Const", "attr": {"value": {"tensor": {"dtype": "DT_FLOAT", "tensorShape": {"dim": [{"size": "64"}, {"size": "64"}]}}}, "dtype": {"type": "DT_FLOAT"}}}, {"name": "StatefulPartitionedCall/sequential_13_1/time_distributed_11_1/BiasAdd_39/ReadVariableOp", "op": "Const", "attr": {"value": {"tensor": {"dtype": "DT_FLOAT", "tensorShape": {"dim": [{"size": "64"}]}}}, "dtype": {"type": "DT_FLOAT"}}}, {"name": "StatefulPartitionedCall/sequential_13_1/time_distributed_11_1/strided_slice_41/stack", "op": "Const", "attr": {"dtype": {"type": "DT_INT32"}, "value": {"tensor": {"dtype": "DT_INT32", "tensorShape": {"dim": [{"size": "1"}]}}}}}, {"name": "StatefulPartitionedCall/sequential_13_1/time_distributed_11_1/strided_slice_41/stack_1", "op": "Const", "attr": {"dtype": {"type": "DT_INT32"}, "value": {"tensor": {"dtype": "DT_INT32", "tensorShape": {"dim": [{"size": "1"}]}}}}}, {"name": "StatefulPartitionedCall/sequential_13_1/time_distributed_11_1/strided_slice_41/stack_2", "op": "Const", "attr": {"dtype": {"type": "DT_INT32"}, "value": {"tensor": {"dtype": "DT_INT32", "tensorShape": {"dim": [{"size": "1"}]}}}}}, {"name": "StatefulPartitionedCall/sequential_13_1/time_distributed_11_1/Cast_40/ReadVariableOp", "op": "Const", "attr": {"value": {"tensor": {"dtype": "DT_FLOAT", "tensorShape": {"dim": [{"size": "64"}, {"size": "64"}]}}}, "dtype": {"type": "DT_FLOAT"}}}, {"name": "StatefulPartitionedCall/sequential_13_1/time_distributed_11_1/BiasAdd_40/ReadVariableOp", "op": "Const", "attr": {"dtype": {"type": "DT_FLOAT"}, "value": {"tensor": {"dtype": "DT_FLOAT", "tensorShape": {"dim": [{"size": "64"}]}}}}}, {"name": "StatefulPartitionedCall/sequential_13_1/time_distributed_11_1/strided_slice_42/stack", "op": "Const", "attr": {"value": {"tensor": {"dtype": "DT_INT32", "tensorShape": {"dim": [{"size": "1"}]}}}, "dtype": {"type": "DT_INT32"}}}, {"name": "StatefulPartitionedCall/sequential_13_1/time_distributed_11_1/strided_slice_42/stack_1", "op": "Const", "attr": {"dtype": {"type": "DT_INT32"}, "value": {"tensor": {"dtype": "DT_INT32", "tensorShape": {"dim": [{"size": "1"}]}}}}}, {"name": "StatefulPartitionedCall/sequential_13_1/time_distributed_11_1/strided_slice_42/stack_2", "op": "Const", "attr": {"dtype": {"type": "DT_INT32"}, "value": {"tensor": {"dtype": "DT_INT32", "tensorShape": {"dim": [{"size": "1"}]}}}}}, {"name": "StatefulPartitionedCall/sequential_13_1/time_distributed_11_1/Cast_41/ReadVariableOp", "op": "Const", "attr": {"dtype": {"type": "DT_FLOAT"}, "value": {"tensor": {"dtype": "DT_FLOAT", "tensorShape": {"dim": [{"size": "64"}, {"size": "64"}]}}}}}, {"name": "StatefulPartitionedCall/sequential_13_1/time_distributed_11_1/BiasAdd_41/ReadVariableOp", "op": "Const", "attr": {"value": {"tensor": {"dtype": "DT_FLOAT", "tensorShape": {"dim": [{"size": "64"}]}}}, "dtype": {"type": "DT_FLOAT"}}}, {"name": "StatefulPartitionedCall/sequential_13_1/time_distributed_11_1/strided_slice_43/stack", "op": "Const", "attr": {"value": {"tensor": {"dtype": "DT_INT32", "tensorShape": {"dim": [{"size": "1"}]}}}, "dtype": {"type": "DT_INT32"}}}, {"name": "StatefulPartitionedCall/sequential_13_1/time_distributed_11_1/strided_slice_43/stack_1", "op": "Const", "attr": {"value": {"tensor": {"dtype": "DT_INT32", "tensorShape": {"dim": [{"size": "1"}]}}}, "dtype": {"type": "DT_INT32"}}}, {"name": "StatefulPartitionedCall/sequential_13_1/time_distributed_11_1/strided_slice_43/stack_2", "op": "Const", "attr": {"value": {"tensor": {"dtype": "DT_INT32", "tensorShape": {"dim": [{"size": "1"}]}}}, "dtype": {"type": "DT_INT32"}}}, {"name": "StatefulPartitionedCall/sequential_13_1/time_distributed_11_1/Cast_42/ReadVariableOp", "op": "Const", "attr": {"dtype": {"type": "DT_FLOAT"}, "value": {"tensor": {"dtype": "DT_FLOAT", "tensorShape": {"dim": [{"size": "64"}, {"size": "64"}]}}}}}, {"name": "StatefulPartitionedCall/sequential_13_1/time_distributed_11_1/BiasAdd_42/ReadVariableOp", "op": "Const", "attr": {"value": {"tensor": {"dtype": "DT_FLOAT", "tensorShape": {"dim": [{"size": "64"}]}}}, "dtype": {"type": "DT_FLOAT"}}}, {"name": "StatefulPartitionedCall/sequential_13_1/time_distributed_11_1/strided_slice_44/stack", "op": "Const", "attr": {"value": {"tensor": {"dtype": "DT_INT32", "tensorShape": {"dim": [{"size": "1"}]}}}, "dtype": {"type": "DT_INT32"}}}, {"name": "StatefulPartitionedCall/sequential_13_1/time_distributed_11_1/strided_slice_44/stack_1", "op": "Const", "attr": {"dtype": {"type": "DT_INT32"}, "value": {"tensor": {"dtype": "DT_INT32", "tensorShape": {"dim": [{"size": "1"}]}}}}}, {"name": "StatefulPartitionedCall/sequential_13_1/time_distributed_11_1/strided_slice_44/stack_2", "op": "Const", "attr": {"value": {"tensor": {"dtype": "DT_INT32", "tensorShape": {"dim": [{"size": "1"}]}}}, "dtype": {"type": "DT_INT32"}}}, {"name": "StatefulPartitionedCall/sequential_13_1/time_distributed_11_1/Cast_43/ReadVariableOp", "op": "Const", "attr": {"value": {"tensor": {"dtype": "DT_FLOAT", "tensorShape": {"dim": [{"size": "64"}, {"size": "64"}]}}}, "dtype": {"type": "DT_FLOAT"}}}, {"name": "StatefulPartitionedCall/sequential_13_1/time_distributed_11_1/BiasAdd_43/ReadVariableOp", "op": "Const", "attr": {"dtype": {"type": "DT_FLOAT"}, "value": {"tensor": {"dtype": "DT_FLOAT", "tensorShape": {"dim": [{"size": "64"}]}}}}}, {"name": "StatefulPartitionedCall/sequential_13_1/time_distributed_11_1/strided_slice_45/stack", "op": "Const", "attr": {"value": {"tensor": {"dtype": "DT_INT32", "tensorShape": {"dim": [{"size": "1"}]}}}, "dtype": {"type": "DT_INT32"}}}, {"name": "StatefulPartitionedCall/sequential_13_1/time_distributed_11_1/strided_slice_45/stack_1", "op": "Const", "attr": {"value": {"tensor": {"dtype": "DT_INT32", "tensorShape": {"dim": [{"size": "1"}]}}}, "dtype": {"type": "DT_INT32"}}}, {"name": "StatefulPartitionedCall/sequential_13_1/time_distributed_11_1/strided_slice_45/stack_2", "op": "Const", "attr": {"value": {"tensor": {"dtype": "DT_INT32", "tensorShape": {"dim": [{"size": "1"}]}}}, "dtype": {"type": "DT_INT32"}}}, {"name": "StatefulPartitionedCall/sequential_13_1/time_distributed_11_1/Cast_44/ReadVariableOp", "op": "Const", "attr": {"dtype": {"type": "DT_FLOAT"}, "value": {"tensor": {"dtype": "DT_FLOAT", "tensorShape": {"dim": [{"size": "64"}, {"size": "64"}]}}}}}, {"name": "StatefulPartitionedCall/sequential_13_1/time_distributed_11_1/BiasAdd_44/ReadVariableOp", "op": "Const", "attr": {"dtype": {"type": "DT_FLOAT"}, "value": {"tensor": {"dtype": "DT_FLOAT", "tensorShape": {"dim": [{"size": "64"}]}}}}}, {"name": "StatefulPartitionedCall/sequential_13_1/time_distributed_11_1/strided_slice_46/stack", "op": "Const", "attr": {"value": {"tensor": {"dtype": "DT_INT32", "tensorShape": {"dim": [{"size": "1"}]}}}, "dtype": {"type": "DT_INT32"}}}, {"name": "StatefulPartitionedCall/sequential_13_1/time_distributed_11_1/strided_slice_46/stack_1", "op": "Const", "attr": {"value": {"tensor": {"dtype": "DT_INT32", "tensorShape": {"dim": [{"size": "1"}]}}}, "dtype": {"type": "DT_INT32"}}}, {"name": "StatefulPartitionedCall/sequential_13_1/time_distributed_11_1/strided_slice_46/stack_2", "op": "Const", "attr": {"dtype": {"type": "DT_INT32"}, "value": {"tensor": {"dtype": "DT_INT32", "tensorShape": {"dim": [{"size": "1"}]}}}}}, {"name": "StatefulPartitionedCall/sequential_13_1/time_distributed_11_1/Cast_45/ReadVariableOp", "op": "Const", "attr": {"dtype": {"type": "DT_FLOAT"}, "value": {"tensor": {"dtype": "DT_FLOAT", "tensorShape": {"dim": [{"size": "64"}, {"size": "64"}]}}}}}, {"name": "StatefulPartitionedCall/sequential_13_1/time_distributed_11_1/BiasAdd_45/ReadVariableOp", "op": "Const", "attr": {"value": {"tensor": {"dtype": "DT_FLOAT", "tensorShape": {"dim": [{"size": "64"}]}}}, "dtype": {"type": "DT_FLOAT"}}}, {"name": "StatefulPartitionedCall/sequential_13_1/time_distributed_11_1/strided_slice_47/stack", "op": "Const", "attr": {"dtype": {"type": "DT_INT32"}, "value": {"tensor": {"dtype": "DT_INT32", "tensorShape": {"dim": [{"size": "1"}]}}}}}, {"name": "StatefulPartitionedCall/sequential_13_1/time_distributed_11_1/strided_slice_47/stack_1", "op": "Const", "attr": {"dtype": {"type": "DT_INT32"}, "value": {"tensor": {"dtype": "DT_INT32", "tensorShape": {"dim": [{"size": "1"}]}}}}}, {"name": "StatefulPartitionedCall/sequential_13_1/time_distributed_11_1/strided_slice_47/stack_2", "op": "Const", "attr": {"value": {"tensor": {"dtype": "DT_INT32", "tensorShape": {"dim": [{"size": "1"}]}}}, "dtype": {"type": "DT_INT32"}}}, {"name": "StatefulPartitionedCall/sequential_13_1/time_distributed_11_1/Cast_46/ReadVariableOp", "op": "Const", "attr": {"dtype": {"type": "DT_FLOAT"}, "value": {"tensor": {"dtype": "DT_FLOAT", "tensorShape": {"dim": [{"size": "64"}, {"size": "64"}]}}}}}, {"name": "StatefulPartitionedCall/sequential_13_1/time_distributed_11_1/BiasAdd_46/ReadVariableOp", "op": "Const", "attr": {"value": {"tensor": {"dtype": "DT_FLOAT", "tensorShape": {"dim": [{"size": "64"}]}}}, "dtype": {"type": "DT_FLOAT"}}}, {"name": "StatefulPartitionedCall/sequential_13_1/time_distributed_11_1/strided_slice_48/stack", "op": "Const", "attr": {"dtype": {"type": "DT_INT32"}, "value": {"tensor": {"dtype": "DT_INT32", "tensorShape": {"dim": [{"size": "1"}]}}}}}, {"name": "StatefulPartitionedCall/sequential_13_1/time_distributed_11_1/strided_slice_48/stack_1", "op": "Const", "attr": {"value": {"tensor": {"dtype": "DT_INT32", "tensorShape": {"dim": [{"size": "1"}]}}}, "dtype": {"type": "DT_INT32"}}}, {"name": "StatefulPartitionedCall/sequential_13_1/time_distributed_11_1/strided_slice_48/stack_2", "op": "Const", "attr": {"dtype": {"type": "DT_INT32"}, "value": {"tensor": {"dtype": "DT_INT32", "tensorShape": {"dim": [{"size": "1"}]}}}}}, {"name": "StatefulPartitionedCall/sequential_13_1/time_distributed_11_1/Cast_47/ReadVariableOp", "op": "Const", "attr": {"dtype": {"type": "DT_FLOAT"}, "value": {"tensor": {"dtype": "DT_FLOAT", "tensorShape": {"dim": [{"size": "64"}, {"size": "64"}]}}}}}, {"name": "StatefulPartitionedCall/sequential_13_1/time_distributed_11_1/BiasAdd_47/ReadVariableOp", "op": "Const", "attr": {"value": {"tensor": {"dtype": "DT_FLOAT", "tensorShape": {"dim": [{"size": "64"}]}}}, "dtype": {"type": "DT_FLOAT"}}}, {"name": "StatefulPartitionedCall/sequential_13_1/time_distributed_11_1/strided_slice_49/stack", "op": "Const", "attr": {"value": {"tensor": {"dtype": "DT_INT32", "tensorShape": {"dim": [{"size": "1"}]}}}, "dtype": {"type": "DT_INT32"}}}, {"name": "StatefulPartitionedCall/sequential_13_1/time_distributed_11_1/strided_slice_49/stack_1", "op": "Const", "attr": {"value": {"tensor": {"dtype": "DT_INT32", "tensorShape": {"dim": [{"size": "1"}]}}}, "dtype": {"type": "DT_INT32"}}}, {"name": "StatefulPartitionedCall/sequential_13_1/time_distributed_11_1/strided_slice_49/stack_2", "op": "Const", "attr": {"dtype": {"type": "DT_INT32"}, "value": {"tensor": {"dtype": "DT_INT32", "tensorShape": {"dim": [{"size": "1"}]}}}}}, {"name": "StatefulPartitionedCall/sequential_13_1/time_distributed_11_1/Cast_48/ReadVariableOp", "op": "Const", "attr": {"value": {"tensor": {"dtype": "DT_FLOAT", "tensorShape": {"dim": [{"size": "64"}, {"size": "64"}]}}}, "dtype": {"type": "DT_FLOAT"}}}, {"name": "StatefulPartitionedCall/sequential_13_1/time_distributed_11_1/BiasAdd_48/ReadVariableOp", "op": "Const", "attr": {"value": {"tensor": {"dtype": "DT_FLOAT", "tensorShape": {"dim": [{"size": "64"}]}}}, "dtype": {"type": "DT_FLOAT"}}}, {"name": "StatefulPartitionedCall/sequential_13_1/time_distributed_11_1/strided_slice_50/stack", "op": "Const", "attr": {"value": {"tensor": {"dtype": "DT_INT32", "tensorShape": {"dim": [{"size": "1"}]}}}, "dtype": {"type": "DT_INT32"}}}, {"name": "StatefulPartitionedCall/sequential_13_1/time_distributed_11_1/strided_slice_50/stack_1", "op": "Const", "attr": {"value": {"tensor": {"dtype": "DT_INT32", "tensorShape": {"dim": [{"size": "1"}]}}}, "dtype": {"type": "DT_INT32"}}}, {"name": "StatefulPartitionedCall/sequential_13_1/time_distributed_11_1/strided_slice_50/stack_2", "op": "Const", "attr": {"value": {"tensor": {"dtype": "DT_INT32", "tensorShape": {"dim": [{"size": "1"}]}}}, "dtype": {"type": "DT_INT32"}}}, {"name": "StatefulPartitionedCall/sequential_13_1/time_distributed_11_1/Cast_49/ReadVariableOp", "op": "Const", "attr": {"dtype": {"type": "DT_FLOAT"}, "value": {"tensor": {"dtype": "DT_FLOAT", "tensorShape": {"dim": [{"size": "64"}, {"size": "64"}]}}}}}, {"name": "StatefulPartitionedCall/sequential_13_1/time_distributed_11_1/BiasAdd_49/ReadVariableOp", "op": "Const", "attr": {"value": {"tensor": {"dtype": "DT_FLOAT", "tensorShape": {"dim": [{"size": "64"}]}}}, "dtype": {"type": "DT_FLOAT"}}}, {"name": "StatefulPartitionedCall/sequential_13_1/time_distributed_11_1/strided_slice_51/stack", "op": "Const", "attr": {"dtype": {"type": "DT_INT32"}, "value": {"tensor": {"dtype": "DT_INT32", "tensorShape": {"dim": [{"size": "1"}]}}}}}, {"name": "StatefulPartitionedCall/sequential_13_1/time_distributed_11_1/strided_slice_51/stack_1", "op": "Const", "attr": {"dtype": {"type": "DT_INT32"}, "value": {"tensor": {"dtype": "DT_INT32", "tensorShape": {"dim": [{"size": "1"}]}}}}}, {"name": "StatefulPartitionedCall/sequential_13_1/time_distributed_11_1/strided_slice_51/stack_2", "op": "Const", "attr": {"dtype": {"type": "DT_INT32"}, "value": {"tensor": {"dtype": "DT_INT32", "tensorShape": {"dim": [{"size": "1"}]}}}}}, {"name": "StatefulPartitionedCall/sequential_13_1/time_distributed_11_1/Cast_50/ReadVariableOp", "op": "Const", "attr": {"value": {"tensor": {"dtype": "DT_FLOAT", "tensorShape": {"dim": [{"size": "64"}, {"size": "64"}]}}}, "dtype": {"type": "DT_FLOAT"}}}, {"name": "StatefulPartitionedCall/sequential_13_1/time_distributed_11_1/BiasAdd_50/ReadVariableOp", "op": "Const", "attr": {"dtype": {"type": "DT_FLOAT"}, "value": {"tensor": {"dtype": "DT_FLOAT", "tensorShape": {"dim": [{"size": "64"}]}}}}}, {"name": "StatefulPartitionedCall/sequential_13_1/time_distributed_11_1/strided_slice_52/stack", "op": "Const", "attr": {"value": {"tensor": {"dtype": "DT_INT32", "tensorShape": {"dim": [{"size": "1"}]}}}, "dtype": {"type": "DT_INT32"}}}, {"name": "StatefulPartitionedCall/sequential_13_1/time_distributed_11_1/strided_slice_52/stack_1", "op": "Const", "attr": {"value": {"tensor": {"dtype": "DT_INT32", "tensorShape": {"dim": [{"size": "1"}]}}}, "dtype": {"type": "DT_INT32"}}}, {"name": "StatefulPartitionedCall/sequential_13_1/time_distributed_11_1/strided_slice_52/stack_2", "op": "Const", "attr": {"value": {"tensor": {"dtype": "DT_INT32", "tensorShape": {"dim": [{"size": "1"}]}}}, "dtype": {"type": "DT_INT32"}}}, {"name": "StatefulPartitionedCall/sequential_13_1/time_distributed_11_1/Cast_51/ReadVariableOp", "op": "Const", "attr": {"dtype": {"type": "DT_FLOAT"}, "value": {"tensor": {"dtype": "DT_FLOAT", "tensorShape": {"dim": [{"size": "64"}, {"size": "64"}]}}}}}, {"name": "StatefulPartitionedCall/sequential_13_1/time_distributed_11_1/BiasAdd_51/ReadVariableOp", "op": "Const", "attr": {"value": {"tensor": {"dtype": "DT_FLOAT", "tensorShape": {"dim": [{"size": "64"}]}}}, "dtype": {"type": "DT_FLOAT"}}}, {"name": "StatefulPartitionedCall/sequential_13_1/time_distributed_11_1/strided_slice_53/stack", "op": "Const", "attr": {"dtype": {"type": "DT_INT32"}, "value": {"tensor": {"dtype": "DT_INT32", "tensorShape": {"dim": [{"size": "1"}]}}}}}, {"name": "StatefulPartitionedCall/sequential_13_1/time_distributed_11_1/strided_slice_53/stack_1", "op": "Const", "attr": {"dtype": {"type": "DT_INT32"}, "value": {"tensor": {"dtype": "DT_INT32", "tensorShape": {"dim": [{"size": "1"}]}}}}}, {"name": "StatefulPartitionedCall/sequential_13_1/time_distributed_11_1/strided_slice_53/stack_2", "op": "Const", "attr": {"dtype": {"type": "DT_INT32"}, "value": {"tensor": {"dtype": "DT_INT32", "tensorShape": {"dim": [{"size": "1"}]}}}}}, {"name": "StatefulPartitionedCall/sequential_13_1/time_distributed_11_1/Cast_52/ReadVariableOp", "op": "Const", "attr": {"value": {"tensor": {"dtype": "DT_FLOAT", "tensorShape": {"dim": [{"size": "64"}, {"size": "64"}]}}}, "dtype": {"type": "DT_FLOAT"}}}, {"name": "StatefulPartitionedCall/sequential_13_1/time_distributed_11_1/BiasAdd_52/ReadVariableOp", "op": "Const", "attr": {"value": {"tensor": {"dtype": "DT_FLOAT", "tensorShape": {"dim": [{"size": "64"}]}}}, "dtype": {"type": "DT_FLOAT"}}}, {"name": "StatefulPartitionedCall/sequential_13_1/time_distributed_11_1/strided_slice_54/stack", "op": "Const", "attr": {"value": {"tensor": {"dtype": "DT_INT32", "tensorShape": {"dim": [{"size": "1"}]}}}, "dtype": {"type": "DT_INT32"}}}, {"name": "StatefulPartitionedCall/sequential_13_1/time_distributed_11_1/strided_slice_54/stack_1", "op": "Const", "attr": {"dtype": {"type": "DT_INT32"}, "value": {"tensor": {"dtype": "DT_INT32", "tensorShape": {"dim": [{"size": "1"}]}}}}}, {"name": "StatefulPartitionedCall/sequential_13_1/time_distributed_11_1/strided_slice_54/stack_2", "op": "Const", "attr": {"dtype": {"type": "DT_INT32"}, "value": {"tensor": {"dtype": "DT_INT32", "tensorShape": {"dim": [{"size": "1"}]}}}}}, {"name": "StatefulPartitionedCall/sequential_13_1/time_distributed_11_1/Cast_53/ReadVariableOp", "op": "Const", "attr": {"dtype": {"type": "DT_FLOAT"}, "value": {"tensor": {"dtype": "DT_FLOAT", "tensorShape": {"dim": [{"size": "64"}, {"size": "64"}]}}}}}, {"name": "StatefulPartitionedCall/sequential_13_1/time_distributed_11_1/BiasAdd_53/ReadVariableOp", "op": "Const", "attr": {"value": {"tensor": {"dtype": "DT_FLOAT", "tensorShape": {"dim": [{"size": "64"}]}}}, "dtype": {"type": "DT_FLOAT"}}}, {"name": "StatefulPartitionedCall/sequential_13_1/time_distributed_11_1/strided_slice_55/stack", "op": "Const", "attr": {"value": {"tensor": {"dtype": "DT_INT32", "tensorShape": {"dim": [{"size": "1"}]}}}, "dtype": {"type": "DT_INT32"}}}, {"name": "StatefulPartitionedCall/sequential_13_1/time_distributed_11_1/strided_slice_55/stack_1", "op": "Const", "attr": {"value": {"tensor": {"dtype": "DT_INT32", "tensorShape": {"dim": [{"size": "1"}]}}}, "dtype": {"type": "DT_INT32"}}}, {"name": "StatefulPartitionedCall/sequential_13_1/time_distributed_11_1/strided_slice_55/stack_2", "op": "Const", "attr": {"value": {"tensor": {"dtype": "DT_INT32", "tensorShape": {"dim": [{"size": "1"}]}}}, "dtype": {"type": "DT_INT32"}}}, {"name": "StatefulPartitionedCall/sequential_13_1/time_distributed_11_1/Cast_54/ReadVariableOp", "op": "Const", "attr": {"value": {"tensor": {"dtype": "DT_FLOAT", "tensorShape": {"dim": [{"size": "64"}, {"size": "64"}]}}}, "dtype": {"type": "DT_FLOAT"}}}, {"name": "StatefulPartitionedCall/sequential_13_1/time_distributed_11_1/BiasAdd_54/ReadVariableOp", "op": "Const", "attr": {"dtype": {"type": "DT_FLOAT"}, "value": {"tensor": {"dtype": "DT_FLOAT", "tensorShape": {"dim": [{"size": "64"}]}}}}}, {"name": "StatefulPartitionedCall/sequential_13_1/time_distributed_11_1/strided_slice_56/stack", "op": "Const", "attr": {"value": {"tensor": {"dtype": "DT_INT32", "tensorShape": {"dim": [{"size": "1"}]}}}, "dtype": {"type": "DT_INT32"}}}, {"name": "StatefulPartitionedCall/sequential_13_1/time_distributed_11_1/strided_slice_56/stack_1", "op": "Const", "attr": {"dtype": {"type": "DT_INT32"}, "value": {"tensor": {"dtype": "DT_INT32", "tensorShape": {"dim": [{"size": "1"}]}}}}}, {"name": "StatefulPartitionedCall/sequential_13_1/time_distributed_11_1/strided_slice_56/stack_2", "op": "Const", "attr": {"value": {"tensor": {"dtype": "DT_INT32", "tensorShape": {"dim": [{"size": "1"}]}}}, "dtype": {"type": "DT_INT32"}}}, {"name": "StatefulPartitionedCall/sequential_13_1/time_distributed_11_1/Cast_55/ReadVariableOp", "op": "Const", "attr": {"dtype": {"type": "DT_FLOAT"}, "value": {"tensor": {"dtype": "DT_FLOAT", "tensorShape": {"dim": [{"size": "64"}, {"size": "64"}]}}}}}, {"name": "StatefulPartitionedCall/sequential_13_1/time_distributed_11_1/BiasAdd_55/ReadVariableOp", "op": "Const", "attr": {"dtype": {"type": "DT_FLOAT"}, "value": {"tensor": {"dtype": "DT_FLOAT", "tensorShape": {"dim": [{"size": "64"}]}}}}}, {"name": "StatefulPartitionedCall/sequential_13_1/time_distributed_11_1/strided_slice_57/stack", "op": "Const", "attr": {"value": {"tensor": {"dtype": "DT_INT32", "tensorShape": {"dim": [{"size": "1"}]}}}, "dtype": {"type": "DT_INT32"}}}, {"name": "StatefulPartitionedCall/sequential_13_1/time_distributed_11_1/strided_slice_57/stack_1", "op": "Const", "attr": {"dtype": {"type": "DT_INT32"}, "value": {"tensor": {"dtype": "DT_INT32", "tensorShape": {"dim": [{"size": "1"}]}}}}}, {"name": "StatefulPartitionedCall/sequential_13_1/time_distributed_11_1/strided_slice_57/stack_2", "op": "Const", "attr": {"value": {"tensor": {"dtype": "DT_INT32", "tensorShape": {"dim": [{"size": "1"}]}}}, "dtype": {"type": "DT_INT32"}}}, {"name": "StatefulPartitionedCall/sequential_13_1/time_distributed_11_1/Cast_56/ReadVariableOp", "op": "Const", "attr": {"value": {"tensor": {"dtype": "DT_FLOAT", "tensorShape": {"dim": [{"size": "64"}, {"size": "64"}]}}}, "dtype": {"type": "DT_FLOAT"}}}, {"name": "StatefulPartitionedCall/sequential_13_1/time_distributed_11_1/BiasAdd_56/ReadVariableOp", "op": "Const", "attr": {"value": {"tensor": {"dtype": "DT_FLOAT", "tensorShape": {"dim": [{"size": "64"}]}}}, "dtype": {"type": "DT_FLOAT"}}}, {"name": "StatefulPartitionedCall/sequential_13_1/time_distributed_11_1/strided_slice_58/stack", "op": "Const", "attr": {"dtype": {"type": "DT_INT32"}, "value": {"tensor": {"dtype": "DT_INT32", "tensorShape": {"dim": [{"size": "1"}]}}}}}, {"name": "StatefulPartitionedCall/sequential_13_1/time_distributed_11_1/strided_slice_58/stack_1", "op": "Const", "attr": {"value": {"tensor": {"dtype": "DT_INT32", "tensorShape": {"dim": [{"size": "1"}]}}}, "dtype": {"type": "DT_INT32"}}}, {"name": "StatefulPartitionedCall/sequential_13_1/time_distributed_11_1/strided_slice_58/stack_2", "op": "Const", "attr": {"value": {"tensor": {"dtype": "DT_INT32", "tensorShape": {"dim": [{"size": "1"}]}}}, "dtype": {"type": "DT_INT32"}}}, {"name": "StatefulPartitionedCall/sequential_13_1/time_distributed_11_1/Cast_57/ReadVariableOp", "op": "Const", "attr": {"value": {"tensor": {"dtype": "DT_FLOAT", "tensorShape": {"dim": [{"size": "64"}, {"size": "64"}]}}}, "dtype": {"type": "DT_FLOAT"}}}, {"name": "StatefulPartitionedCall/sequential_13_1/time_distributed_11_1/BiasAdd_57/ReadVariableOp", "op": "Const", "attr": {"dtype": {"type": "DT_FLOAT"}, "value": {"tensor": {"dtype": "DT_FLOAT", "tensorShape": {"dim": [{"size": "64"}]}}}}}, {"name": "StatefulPartitionedCall/sequential_13_1/time_distributed_11_1/strided_slice_59/stack", "op": "Const", "attr": {"dtype": {"type": "DT_INT32"}, "value": {"tensor": {"dtype": "DT_INT32", "tensorShape": {"dim": [{"size": "1"}]}}}}}, {"name": "StatefulPartitionedCall/sequential_13_1/time_distributed_11_1/strided_slice_59/stack_1", "op": "Const", "attr": {"dtype": {"type": "DT_INT32"}, "value": {"tensor": {"dtype": "DT_INT32", "tensorShape": {"dim": [{"size": "1"}]}}}}}, {"name": "StatefulPartitionedCall/sequential_13_1/time_distributed_11_1/strided_slice_59/stack_2", "op": "Const", "attr": {"dtype": {"type": "DT_INT32"}, "value": {"tensor": {"dtype": "DT_INT32", "tensorShape": {"dim": [{"size": "1"}]}}}}}, {"name": "StatefulPartitionedCall/sequential_13_1/time_distributed_11_1/Cast_58/ReadVariableOp", "op": "Const", "attr": {"value": {"tensor": {"dtype": "DT_FLOAT", "tensorShape": {"dim": [{"size": "64"}, {"size": "64"}]}}}, "dtype": {"type": "DT_FLOAT"}}}, {"name": "StatefulPartitionedCall/sequential_13_1/time_distributed_11_1/BiasAdd_58/ReadVariableOp", "op": "Const", "attr": {"dtype": {"type": "DT_FLOAT"}, "value": {"tensor": {"dtype": "DT_FLOAT", "tensorShape": {"dim": [{"size": "64"}]}}}}}, {"name": "StatefulPartitionedCall/sequential_13_1/lstm_53_1/zeros/packed/1", "op": "Const", "attr": {"dtype": {"type": "DT_INT32"}, "value": {"tensor": {"dtype": "DT_INT32", "tensorShape": {}}}}}, {"name": "StatefulPartitionedCall/sequential_13_1/lstm_53_1/zeros/Const", "op": "Const", "attr": {"value": {"tensor": {"dtype": "DT_FLOAT", "tensorShape": {}}}, "dtype": {"type": "DT_FLOAT"}}}, {"name": "StatefulPartitionedCall/sequential_13_1/lstm_53_1/ExpandDims/dim", "op": "Const", "attr": {"value": {"tensor": {"dtype": "DT_INT32", "tensorShape": {}}}, "dtype": {"type": "DT_INT32"}}}, {"name": "StatefulPartitionedCall/sequential_13_1/lstm_53_1/strided_slice/stack", "op": "Const", "attr": {"value": {"tensor": {"dtype": "DT_INT32", "tensorShape": {"dim": [{"size": "1"}]}}}, "dtype": {"type": "DT_INT32"}}}, {"name": "StatefulPartitionedCall/sequential_13_1/lstm_53_1/strided_slice/stack_1", "op": "Const", "attr": {"dtype": {"type": "DT_INT32"}, "value": {"tensor": {"dtype": "DT_INT32", "tensorShape": {"dim": [{"size": "1"}]}}}}}, {"name": "StatefulPartitionedCall/sequential_13_1/lstm_53_1/strided_slice/stack_2", "op": "Const", "attr": {"value": {"tensor": {"dtype": "DT_INT32", "tensorShape": {"dim": [{"size": "1"}]}}}, "dtype": {"type": "DT_INT32"}}}, {"name": "StatefulPartitionedCall/sequential_13_1/lstm_53_1/zeros_1/packed/1", "op": "Const", "attr": {"value": {"tensor": {"dtype": "DT_INT32", "tensorShape": {}}}, "dtype": {"type": "DT_INT32"}}}, {"name": "StatefulPartitionedCall/sequential_13_1/lstm_53_1/zeros_1/Const", "op": "Const", "attr": {"dtype": {"type": "DT_FLOAT"}, "value": {"tensor": {"dtype": "DT_FLOAT", "tensorShape": {}}}}}, {"name": "StatefulPartitionedCall/sequential_13_1/lstm_53_1/ExpandDims_1/dim", "op": "Const", "attr": {"value": {"tensor": {"dtype": "DT_INT32", "tensorShape": {}}}, "dtype": {"type": "DT_INT32"}}}, {"name": "StatefulPartitionedCall/sequential_13_1/lstm_53_1/concat_1", "op": "Const", "attr": {"value": {"tensor": {"dtype": "DT_FLOAT", "tensorShape": {"dim": [{"size": "49664"}]}}}, "dtype": {"type": "DT_FLOAT"}}}, {"name": "StatefulPartitionedCall/sequential_13_1/lstm_53_1/strided_slice_2/stack", "op": "Const", "attr": {"dtype": {"type": "DT_INT32"}, "value": {"tensor": {"dtype": "DT_INT32", "tensorShape": {"dim": [{"size": "1"}]}}}}}, {"name": "StatefulPartitionedCall/sequential_13_1/lstm_53_1/strided_slice_2/stack_1", "op": "Const", "attr": {"dtype": {"type": "DT_INT32"}, "value": {"tensor": {"dtype": "DT_INT32", "tensorShape": {"dim": [{"size": "1"}]}}}}}, {"name": "StatefulPartitionedCall/sequential_13_1/lstm_53_1/strided_slice_2/stack_2", "op": "Const", "attr": {"dtype": {"type": "DT_INT32"}, "value": {"tensor": {"dtype": "DT_INT32", "tensorShape": {"dim": [{"size": "1"}]}}}}}, {"name": "StatefulPartitionedCall/sequential_13_1/lstm_52_1/zeros/packed/1", "op": "Const", "attr": {"value": {"tensor": {"dtype": "DT_INT32", "tensorShape": {}}}, "dtype": {"type": "DT_INT32"}}}, {"name": "StatefulPartitionedCall/sequential_13_1/lstm_52_1/zeros/Const", "op": "Const", "attr": {"value": {"tensor": {"dtype": "DT_FLOAT", "tensorShape": {}}}, "dtype": {"type": "DT_FLOAT"}}}, {"name": "StatefulPartitionedCall/sequential_13_1/lstm_52_1/ExpandDims/dim", "op": "Const", "attr": {"value": {"tensor": {"dtype": "DT_INT32", "tensorShape": {}}}, "dtype": {"type": "DT_INT32"}}}, {"name": "StatefulPartitionedCall/sequential_13_1/lstm_52_1/strided_slice/stack", "op": "Const", "attr": {"value": {"tensor": {"dtype": "DT_INT32", "tensorShape": {"dim": [{"size": "1"}]}}}, "dtype": {"type": "DT_INT32"}}}, {"name": "StatefulPartitionedCall/sequential_13_1/lstm_52_1/strided_slice/stack_1", "op": "Const", "attr": {"dtype": {"type": "DT_INT32"}, "value": {"tensor": {"dtype": "DT_INT32", "tensorShape": {"dim": [{"size": "1"}]}}}}}, {"name": "StatefulPartitionedCall/sequential_13_1/lstm_52_1/strided_slice/stack_2", "op": "Const", "attr": {"dtype": {"type": "DT_INT32"}, "value": {"tensor": {"dtype": "DT_INT32", "tensorShape": {"dim": [{"size": "1"}]}}}}}, {"name": "StatefulPartitionedCall/sequential_13_1/lstm_52_1/zeros_1/packed/1", "op": "Const", "attr": {"dtype": {"type": "DT_INT32"}, "value": {"tensor": {"dtype": "DT_INT32", "tensorShape": {}}}}}, {"name": "StatefulPartitionedCall/sequential_13_1/lstm_52_1/zeros_1/Const", "op": "Const", "attr": {"value": {"tensor": {"dtype": "DT_FLOAT", "tensorShape": {}}}, "dtype": {"type": "DT_FLOAT"}}}, {"name": "StatefulPartitionedCall/sequential_13_1/lstm_52_1/ExpandDims_1/dim", "op": "Const", "attr": {"value": {"tensor": {"dtype": "DT_INT32", "tensorShape": {}}}, "dtype": {"type": "DT_INT32"}}}, {"name": "StatefulPartitionedCall/sequential_13_1/lstm_52_1/concat_1", "op": "Const", "attr": {"value": {"tensor": {"dtype": "DT_FLOAT", "tensorShape": {"dim": [{"size": "132096"}]}}}, "dtype": {"type": "DT_FLOAT"}}}, {"name": "StatefulPartitionedCall/sequential_13_1/lstm_52_1/strided_slice_2/stack", "op": "Const", "attr": {"dtype": {"type": "DT_INT32"}, "value": {"tensor": {"dtype": "DT_INT32", "tensorShape": {"dim": [{"size": "1"}]}}}}}, {"name": "StatefulPartitionedCall/sequential_13_1/lstm_52_1/strided_slice_2/stack_1", "op": "Const", "attr": {"value": {"tensor": {"dtype": "DT_INT32", "tensorShape": {"dim": [{"size": "1"}]}}}, "dtype": {"type": "DT_INT32"}}}, {"name": "StatefulPartitionedCall/sequential_13_1/lstm_52_1/strided_slice_2/stack_2", "op": "Const", "attr": {"dtype": {"type": "DT_INT32"}, "value": {"tensor": {"dtype": "DT_INT32", "tensorShape": {"dim": [{"size": "1"}]}}}}}, {"name": "StatefulPartitionedCall/sequential_13_1/lstm_51_1/zeros/packed/1", "op": "Const", "attr": {"dtype": {"type": "DT_INT32"}, "value": {"tensor": {"dtype": "DT_INT32", "tensorShape": {}}}}}, {"name": "StatefulPartitionedCall/sequential_13_1/lstm_51_1/zeros/Const", "op": "Const", "attr": {"value": {"tensor": {"dtype": "DT_FLOAT", "tensorShape": {}}}, "dtype": {"type": "DT_FLOAT"}}}, {"name": "StatefulPartitionedCall/sequential_13_1/lstm_51_1/ExpandDims/dim", "op": "Const", "attr": {"dtype": {"type": "DT_INT32"}, "value": {"tensor": {"dtype": "DT_INT32", "tensorShape": {}}}}}, {"name": "StatefulPartitionedCall/sequential_13_1/lstm_51_1/strided_slice/stack", "op": "Const", "attr": {"value": {"tensor": {"dtype": "DT_INT32", "tensorShape": {"dim": [{"size": "1"}]}}}, "dtype": {"type": "DT_INT32"}}}, {"name": "StatefulPartitionedCall/sequential_13_1/lstm_51_1/strided_slice/stack_1", "op": "Const", "attr": {"value": {"tensor": {"dtype": "DT_INT32", "tensorShape": {"dim": [{"size": "1"}]}}}, "dtype": {"type": "DT_INT32"}}}, {"name": "StatefulPartitionedCall/sequential_13_1/lstm_51_1/strided_slice/stack_2", "op": "Const", "attr": {"dtype": {"type": "DT_INT32"}, "value": {"tensor": {"dtype": "DT_INT32", "tensorShape": {"dim": [{"size": "1"}]}}}}}, {"name": "StatefulPartitionedCall/sequential_13_1/lstm_51_1/zeros_1/packed/1", "op": "Const", "attr": {"value": {"tensor": {"dtype": "DT_INT32", "tensorShape": {}}}, "dtype": {"type": "DT_INT32"}}}, {"name": "StatefulPartitionedCall/sequential_13_1/lstm_51_1/zeros_1/Const", "op": "Const", "attr": {"dtype": {"type": "DT_FLOAT"}, "value": {"tensor": {"dtype": "DT_FLOAT", "tensorShape": {}}}}}, {"name": "StatefulPartitionedCall/sequential_13_1/lstm_51_1/ExpandDims_1/dim", "op": "Const", "attr": {"value": {"tensor": {"dtype": "DT_INT32", "tensorShape": {}}}, "dtype": {"type": "DT_INT32"}}}, {"name": "StatefulPartitionedCall/sequential_13_1/lstm_51_1/concat_1", "op": "Const", "attr": {"dtype": {"type": "DT_FLOAT"}, "value": {"tensor": {"dtype": "DT_FLOAT", "tensorShape": {"dim": [{"size": "328704"}]}}}}}, {"name": "StatefulPartitionedCall/sequential_13_1/lstm_51_1/strided_slice_2/stack", "op": "Const", "attr": {"dtype": {"type": "DT_INT32"}, "value": {"tensor": {"dtype": "DT_INT32", "tensorShape": {"dim": [{"size": "1"}]}}}}}, {"name": "StatefulPartitionedCall/sequential_13_1/lstm_51_1/strided_slice_2/stack_1", "op": "Const", "attr": {"value": {"tensor": {"dtype": "DT_INT32", "tensorShape": {"dim": [{"size": "1"}]}}}, "dtype": {"type": "DT_INT32"}}}, {"name": "StatefulPartitionedCall/sequential_13_1/lstm_51_1/strided_slice_2/stack_2", "op": "Const", "attr": {"dtype": {"type": "DT_INT32"}, "value": {"tensor": {"dtype": "DT_INT32", "tensorShape": {"dim": [{"size": "1"}]}}}}}, {"name": "StatefulPartitionedCall/sequential_13_1/bidirectional_8_1/forward_lstm_50_1/zeros/packed/1", "op": "Const", "attr": {"dtype": {"type": "DT_INT32"}, "value": {"tensor": {"dtype": "DT_INT32", "tensorShape": {}}}}}, {"name": "StatefulPartitionedCall/sequential_13_1/bidirectional_8_1/forward_lstm_50_1/zeros/Const", "op": "Const", "attr": {"value": {"tensor": {"dtype": "DT_FLOAT", "tensorShape": {}}}, "dtype": {"type": "DT_FLOAT"}}}, {"name": "StatefulPartitionedCall/sequential_13_1/bidirectional_8_1/forward_lstm_50_1/ExpandDims/dim", "op": "Const", "attr": {"value": {"tensor": {"dtype": "DT_INT32", "tensorShape": {}}}, "dtype": {"type": "DT_INT32"}}}, {"name": "StatefulPartitionedCall/sequential_13_1/bidirectional_8_1/forward_lstm_50_1/strided_slice/stack", "op": "Const", "attr": {"value": {"tensor": {"dtype": "DT_INT32", "tensorShape": {"dim": [{"size": "1"}]}}}, "dtype": {"type": "DT_INT32"}}}, {"name": "StatefulPartitionedCall/sequential_13_1/bidirectional_8_1/forward_lstm_50_1/strided_slice/stack_1", "op": "Const", "attr": {"dtype": {"type": "DT_INT32"}, "value": {"tensor": {"dtype": "DT_INT32", "tensorShape": {"dim": [{"size": "1"}]}}}}}, {"name": "StatefulPartitionedCall/sequential_13_1/bidirectional_8_1/forward_lstm_50_1/strided_slice/stack_2", "op": "Const", "attr": {"dtype": {"type": "DT_INT32"}, "value": {"tensor": {"dtype": "DT_INT32", "tensorShape": {"dim": [{"size": "1"}]}}}}}, {"name": "StatefulPartitionedCall/sequential_13_1/bidirectional_8_1/forward_lstm_50_1/zeros_1/packed/1", "op": "Const", "attr": {"value": {"tensor": {"dtype": "DT_INT32", "tensorShape": {}}}, "dtype": {"type": "DT_INT32"}}}, {"name": "StatefulPartitionedCall/sequential_13_1/bidirectional_8_1/forward_lstm_50_1/zeros_1/Const", "op": "Const", "attr": {"value": {"tensor": {"dtype": "DT_FLOAT", "tensorShape": {}}}, "dtype": {"type": "DT_FLOAT"}}}, {"name": "StatefulPartitionedCall/sequential_13_1/bidirectional_8_1/forward_lstm_50_1/ExpandDims_1/dim", "op": "Const", "attr": {"dtype": {"type": "DT_INT32"}, "value": {"tensor": {"dtype": "DT_INT32", "tensorShape": {}}}}}, {"name": "StatefulPartitionedCall/sequential_13_1/bidirectional_8_1/forward_lstm_50_1/concat_1", "op": "Const", "attr": {"dtype": {"type": "DT_FLOAT"}, "value": {"tensor": {"dtype": "DT_FLOAT", "tensorShape": {"dim": [{"size": "1966080"}]}}}}}, {"name": "StatefulPartitionedCall/sequential_13_1/bidirectional_8_1/forward_lstm_50_1/strided_slice_2/stack", "op": "Const", "attr": {"value": {"tensor": {"dtype": "DT_INT32", "tensorShape": {"dim": [{"size": "1"}]}}}, "dtype": {"type": "DT_INT32"}}}, {"name": "StatefulPartitionedCall/sequential_13_1/bidirectional_8_1/forward_lstm_50_1/strided_slice_2/stack_1", "op": "Const", "attr": {"value": {"tensor": {"dtype": "DT_INT32", "tensorShape": {"dim": [{"size": "1"}]}}}, "dtype": {"type": "DT_INT32"}}}, {"name": "StatefulPartitionedCall/sequential_13_1/bidirectional_8_1/forward_lstm_50_1/strided_slice_2/stack_2", "op": "Const", "attr": {"dtype": {"type": "DT_INT32"}, "value": {"tensor": {"dtype": "DT_INT32", "tensorShape": {"dim": [{"size": "1"}]}}}}}, {"name": "StatefulPartitionedCall/sequential_13_1/bidirectional_8_1/forward_lstm_50_1/strided_slice_3/stack", "op": "Const", "attr": {"value": {"tensor": {"dtype": "DT_INT32", "tensorShape": {"dim": [{"size": "1"}]}}}, "dtype": {"type": "DT_INT32"}}}, {"name": "StatefulPartitionedCall/sequential_13_1/bidirectional_8_1/forward_lstm_50_1/strided_slice_3/stack_1", "op": "Const", "attr": {"dtype": {"type": "DT_INT32"}, "value": {"tensor": {"dtype": "DT_INT32", "tensorShape": {"dim": [{"size": "1"}]}}}}}, {"name": "StatefulPartitionedCall/sequential_13_1/bidirectional_8_1/forward_lstm_50_1/strided_slice_3/stack_2", "op": "Const", "attr": {"value": {"tensor": {"dtype": "DT_INT32", "tensorShape": {"dim": [{"size": "1"}]}}}, "dtype": {"type": "DT_INT32"}}}, {"name": "StatefulPartitionedCall/sequential_13_1/bidirectional_8_1/backward_lstm_50_1/zeros/packed/1", "op": "Const", "attr": {"value": {"tensor": {"dtype": "DT_INT32", "tensorShape": {}}}, "dtype": {"type": "DT_INT32"}}}, {"name": "StatefulPartitionedCall/sequential_13_1/bidirectional_8_1/backward_lstm_50_1/zeros/Const", "op": "Const", "attr": {"dtype": {"type": "DT_FLOAT"}, "value": {"tensor": {"dtype": "DT_FLOAT", "tensorShape": {}}}}}, {"name": "StatefulPartitionedCall/sequential_13_1/bidirectional_8_1/backward_lstm_50_1/ExpandDims/dim", "op": "Const", "attr": {"value": {"tensor": {"dtype": "DT_INT32", "tensorShape": {}}}, "dtype": {"type": "DT_INT32"}}}, {"name": "StatefulPartitionedCall/sequential_13_1/bidirectional_8_1/backward_lstm_50_1/strided_slice/stack", "op": "Const", "attr": {"value": {"tensor": {"dtype": "DT_INT32", "tensorShape": {"dim": [{"size": "1"}]}}}, "dtype": {"type": "DT_INT32"}}}, {"name": "StatefulPartitionedCall/sequential_13_1/bidirectional_8_1/backward_lstm_50_1/strided_slice/stack_1", "op": "Const", "attr": {"value": {"tensor": {"dtype": "DT_INT32", "tensorShape": {"dim": [{"size": "1"}]}}}, "dtype": {"type": "DT_INT32"}}}, {"name": "StatefulPartitionedCall/sequential_13_1/bidirectional_8_1/backward_lstm_50_1/strided_slice/stack_2", "op": "Const", "attr": {"dtype": {"type": "DT_INT32"}, "value": {"tensor": {"dtype": "DT_INT32", "tensorShape": {"dim": [{"size": "1"}]}}}}}, {"name": "StatefulPartitionedCall/sequential_13_1/bidirectional_8_1/backward_lstm_50_1/zeros_1/packed/1", "op": "Const", "attr": {"value": {"tensor": {"dtype": "DT_INT32", "tensorShape": {}}}, "dtype": {"type": "DT_INT32"}}}, {"name": "StatefulPartitionedCall/sequential_13_1/bidirectional_8_1/backward_lstm_50_1/zeros_1/Const", "op": "Const", "attr": {"value": {"tensor": {"dtype": "DT_FLOAT", "tensorShape": {}}}, "dtype": {"type": "DT_FLOAT"}}}, {"name": "StatefulPartitionedCall/sequential_13_1/bidirectional_8_1/backward_lstm_50_1/ExpandDims_1/dim", "op": "Const", "attr": {"dtype": {"type": "DT_INT32"}, "value": {"tensor": {"dtype": "DT_INT32", "tensorShape": {}}}}}, {"name": "StatefulPartitionedCall/sequential_13_1/bidirectional_8_1/backward_lstm_50_1/concat_1", "op": "Const", "attr": {"value": {"tensor": {"dtype": "DT_FLOAT", "tensorShape": {"dim": [{"size": "1966080"}]}}}, "dtype": {"type": "DT_FLOAT"}}}, {"name": "StatefulPartitionedCall/sequential_13_1/bidirectional_8_1/backward_lstm_50_1/strided_slice_2/stack", "op": "Const", "attr": {"dtype": {"type": "DT_INT32"}, "value": {"tensor": {"dtype": "DT_INT32", "tensorShape": {"dim": [{"size": "1"}]}}}}}, {"name": "StatefulPartitionedCall/sequential_13_1/bidirectional_8_1/backward_lstm_50_1/strided_slice_2/stack_1", "op": "Const", "attr": {"dtype": {"type": "DT_INT32"}, "value": {"tensor": {"dtype": "DT_INT32", "tensorShape": {"dim": [{"size": "1"}]}}}}}, {"name": "StatefulPartitionedCall/sequential_13_1/bidirectional_8_1/backward_lstm_50_1/strided_slice_2/stack_2", "op": "Const", "attr": {"dtype": {"type": "DT_INT32"}, "value": {"tensor": {"dtype": "DT_INT32", "tensorShape": {"dim": [{"size": "1"}]}}}}}, {"name": "StatefulPartitionedCall/sequential_13_1/bidirectional_8_1/backward_lstm_50_1/strided_slice_3/stack", "op": "Const", "attr": {"dtype": {"type": "DT_INT32"}, "value": {"tensor": {"dtype": "DT_INT32", "tensorShape": {"dim": [{"size": "1"}]}}}}}, {"name": "StatefulPartitionedCall/sequential_13_1/bidirectional_8_1/backward_lstm_50_1/strided_slice_3/stack_1", "op": "Const", "attr": {"dtype": {"type": "DT_INT32"}, "value": {"tensor": {"dtype": "DT_INT32", "tensorShape": {"dim": [{"size": "1"}]}}}}}, {"name": "StatefulPartitionedCall/sequential_13_1/bidirectional_8_1/backward_lstm_50_1/strided_slice_3/stack_2", "op": "Const", "attr": {"dtype": {"type": "DT_INT32"}, "value": {"tensor": {"dtype": "DT_INT32", "tensorShape": {"dim": [{"size": "1"}]}}}}}, {"name": "StatefulPartitionedCall/sequential_13_1/bidirectional_8_1/backward_lstm_50_1/ReverseV2/axis", "op": "Const", "attr": {"value": {"tensor": {"dtype": "DT_INT32", "tensorShape": {"dim": [{"size": "1"}]}}}, "dtype": {"type": "DT_INT32"}}}, {"name": "StatefulPartitionedCall/sequential_13_1/bidirectional_8_1/ReverseV2/axis", "op": "Const", "attr": {"value": {"tensor": {"dtype": "DT_INT32", "tensorShape": {"dim": [{"size": "1"}]}}}, "dtype": {"type": "DT_INT32"}}}, {"name": "StatefulPartitionedCall/sequential_13_1/bidirectional_8_1/concat/axis", "op": "Const", "attr": {"value": {"tensor": {"dtype": "DT_INT32", "tensorShape": {}}}, "dtype": {"type": "DT_INT32"}}}, {"name": "StatefulPartitionedCall/sequential_13_1/lstm_51_1/strided_slice_3/stack", "op": "Const", "attr": {"dtype": {"type": "DT_INT32"}, "value": {"tensor": {"dtype": "DT_INT32", "tensorShape": {"dim": [{"size": "1"}]}}}}}, {"name": "StatefulPartitionedCall/sequential_13_1/lstm_51_1/strided_slice_3/stack_1", "op": "Const", "attr": {"dtype": {"type": "DT_INT32"}, "value": {"tensor": {"dtype": "DT_INT32", "tensorShape": {"dim": [{"size": "1"}]}}}}}, {"name": "StatefulPartitionedCall/sequential_13_1/lstm_51_1/strided_slice_3/stack_2", "op": "Const", "attr": {"dtype": {"type": "DT_INT32"}, "value": {"tensor": {"dtype": "DT_INT32", "tensorShape": {"dim": [{"size": "1"}]}}}}}, {"name": "StatefulPartitionedCall/sequential_13_1/lstm_52_1/strided_slice_3/stack", "op": "Const", "attr": {"dtype": {"type": "DT_INT32"}, "value": {"tensor": {"dtype": "DT_INT32", "tensorShape": {"dim": [{"size": "1"}]}}}}}, {"name": "StatefulPartitionedCall/sequential_13_1/lstm_52_1/strided_slice_3/stack_1", "op": "Const", "attr": {"dtype": {"type": "DT_INT32"}, "value": {"tensor": {"dtype": "DT_INT32", "tensorShape": {"dim": [{"size": "1"}]}}}}}, {"name": "StatefulPartitionedCall/sequential_13_1/lstm_52_1/strided_slice_3/stack_2", "op": "Const", "attr": {"value": {"tensor": {"dtype": "DT_INT32", "tensorShape": {"dim": [{"size": "1"}]}}}, "dtype": {"type": "DT_INT32"}}}, {"name": "StatefulPartitionedCall/sequential_13_1/lstm_53_1/strided_slice_3/stack", "op": "Const", "attr": {"value": {"tensor": {"dtype": "DT_INT32", "tensorShape": {"dim": [{"size": "1"}]}}}, "dtype": {"type": "DT_INT32"}}}, {"name": "StatefulPartitionedCall/sequential_13_1/lstm_53_1/strided_slice_3/stack_1", "op": "Const", "attr": {"dtype": {"type": "DT_INT32"}, "value": {"tensor": {"dtype": "DT_INT32", "tensorShape": {"dim": [{"size": "1"}]}}}}}, {"name": "StatefulPartitionedCall/sequential_13_1/lstm_53_1/strided_slice_3/stack_2", "op": "Const", "attr": {"dtype": {"type": "DT_INT32"}, "value": {"tensor": {"dtype": "DT_INT32", "tensorShape": {"dim": [{"size": "1"}]}}}}}, {"name": "StatefulPartitionedCall/sequential_13_1/time_distributed_11_1/transpose/perm", "op": "Const", "attr": {"value": {"tensor": {"dtype": "DT_INT32", "tensorShape": {"dim": [{"size": "3"}]}}}, "dtype": {"type": "DT_INT32"}}}, {"name": "StatefulPartitionedCall/sequential_13_1/time_distributed_11_1/strided_slice_60/stack", "op": "Const", "attr": {"value": {"tensor": {"dtype": "DT_INT32", "tensorShape": {"dim": [{"size": "1"}]}}}, "dtype": {"type": "DT_INT32"}}}, {"name": "StatefulPartitionedCall/sequential_13_1/time_distributed_11_1/strided_slice_60/stack_1", "op": "Const", "attr": {"value": {"tensor": {"dtype": "DT_INT32", "tensorShape": {"dim": [{"size": "1"}]}}}, "dtype": {"type": "DT_INT32"}}}, {"name": "StatefulPartitionedCall/sequential_13_1/time_distributed_11_1/strided_slice_60/stack_2", "op": "Const", "attr": {"dtype": {"type": "DT_INT32"}, "value": {"tensor": {"dtype": "DT_INT32", "tensorShape": {"dim": [{"size": "1"}]}}}}}, {"name": "StatefulPartitionedCall/sequential_13_1/time_distributed_11_1/Cast_59/ReadVariableOp", "op": "Const", "attr": {"dtype": {"type": "DT_FLOAT"}, "value": {"tensor": {"dtype": "DT_FLOAT", "tensorShape": {"dim": [{"size": "64"}, {"size": "64"}]}}}}}, {"name": "StatefulPartitionedCall/sequential_13_1/time_distributed_11_1/BiasAdd_59/ReadVariableOp", "op": "Const", "attr": {"dtype": {"type": "DT_FLOAT"}, "value": {"tensor": {"dtype": "DT_FLOAT", "tensorShape": {"dim": [{"size": "64"}]}}}}}, {"name": "StatefulPartitionedCall/sequential_13_1/time_distributed_11_1/transpose_1/perm", "op": "Const", "attr": {"value": {"tensor": {"dtype": "DT_INT32", "tensorShape": {"dim": [{"size": "3"}]}}}, "dtype": {"type": "DT_INT32"}}}, {"name": "StatefulPartitionedCall/sequential_13_1/lstm_54_1/strided_slice_3/stack", "op": "Const", "attr": {"dtype": {"type": "DT_INT32"}, "value": {"tensor": {"dtype": "DT_INT32", "tensorShape": {"dim": [{"size": "1"}]}}}}}, {"name": "StatefulPartitionedCall/sequential_13_1/lstm_54_1/strided_slice_3/stack_1", "op": "Const", "attr": {"dtype": {"type": "DT_INT32"}, "value": {"tensor": {"dtype": "DT_INT32", "tensorShape": {"dim": [{"size": "1"}]}}}}}, {"name": "StatefulPartitionedCall/sequential_13_1/lstm_54_1/strided_slice_3/stack_2", "op": "Const", "attr": {"value": {"tensor": {"dtype": "DT_INT32", "tensorShape": {"dim": [{"size": "1"}]}}}, "dtype": {"type": "DT_INT32"}}}, {"name": "StatefulPartitionedCall/sequential_13_1/dense_23_1/Cast/ReadVariableOp", "op": "Const", "attr": {"value": {"tensor": {"dtype": "DT_FLOAT", "tensorShape": {"dim": [{"size": "32"}, {"size": "8"}]}}}, "dtype": {"type": "DT_FLOAT"}}}, {"name": "StatefulPartitionedCall/sequential_13_1/dense_23_1/BiasAdd/ReadVariableOp", "op": "Const", "attr": {"dtype": {"type": "DT_FLOAT"}, "value": {"tensor": {"dtype": "DT_FLOAT", "tensorShape": {"dim": [{"size": "8"}]}}}}}, {"name": "keras_tensor_891", "op": "Placeholder", "attr": {"dtype": {"type": "DT_FLOAT"}, "shape": {"shape": {"dim": [{"size": "-1"}, {"size": "60"}, {"size": "1662"}]}}}}, {"name": "StatefulPartitionedCall/sequential_13_1/bidirectional_8_1/forward_lstm_50_1/Shape", "op": "Shape", "input": ["keras_tensor_891"], "attr": {"out_type": {"type": "DT_INT32"}, "T": {"type": "DT_FLOAT"}}, "experimentalType": {"typeId": "TFT_PRODUCT", "args": [{"typeId": "TFT_SHAPE_TENSOR", "args": [{"typeId": "TFT_INT32"}]}]}}, {"name": "StatefulPartitionedCall/sequential_13_1/bidirectional_8_1/forward_lstm_50_1/Shape_1", "op": "Shape", "input": ["keras_tensor_891"], "attr": {"out_type": {"type": "DT_INT32"}, "T": {"type": "DT_FLOAT"}}, "experimentalType": {"typeId": "TFT_PRODUCT", "args": [{"typeId": "TFT_SHAPE_TENSOR", "args": [{"typeId": "TFT_INT32"}]}]}}, {"name": "StatefulPartitionedCall/sequential_13_1/bidirectional_8_1/forward_lstm_50_1/Shape_2", "op": "Shape", "input": ["keras_tensor_891"], "attr": {"out_type": {"type": "DT_INT32"}, "T": {"type": "DT_FLOAT"}}, "experimentalType": {"typeId": "TFT_PRODUCT", "args": [{"typeId": "TFT_SHAPE_TENSOR", "args": [{"typeId": "TFT_INT32"}]}]}}, {"name": "StatefulPartitionedCall/sequential_13_1/bidirectional_8_1/backward_lstm_50_1/Shape", "op": "Shape", "input": ["keras_tensor_891"], "attr": {"out_type": {"type": "DT_INT32"}, "T": {"type": "DT_FLOAT"}}, "experimentalType": {"typeId": "TFT_PRODUCT", "args": [{"typeId": "TFT_SHAPE_TENSOR", "args": [{"typeId": "TFT_INT32"}]}]}}, {"name": "StatefulPartitionedCall/sequential_13_1/bidirectional_8_1/backward_lstm_50_1/Shape_1", "op": "Shape", "input": ["keras_tensor_891"], "attr": {"out_type": {"type": "DT_INT32"}, "T": {"type": "DT_FLOAT"}}, "experimentalType": {"typeId": "TFT_PRODUCT", "args": [{"typeId": "TFT_SHAPE_TENSOR", "args": [{"typeId": "TFT_INT32"}]}]}}, {"name": "StatefulPartitionedCall/sequential_13_1/bidirectional_8_1/backward_lstm_50_1/Shape_2", "op": "Shape", "input": ["keras_tensor_891"], "attr": {"out_type": {"type": "DT_INT32"}, "T": {"type": "DT_FLOAT"}}, "experimentalType": {"typeId": "TFT_PRODUCT", "args": [{"typeId": "TFT_SHAPE_TENSOR", "args": [{"typeId": "TFT_INT32"}]}]}}, {"name": "StatefulPartitionedCall/sequential_13_1/bidirectional_8_1/forward_lstm_50_1/strided_slice", "op": "StridedSlice", "input": ["StatefulPartitionedCall/sequential_13_1/bidirectional_8_1/forward_lstm_50_1/Shape", "StatefulPartitionedCall/sequential_13_1/bidirectional_8_1/forward_lstm_50_1/strided_slice/stack", "StatefulPartitionedCall/sequential_13_1/bidirectional_8_1/forward_lstm_50_1/strided_slice/stack_1", "StatefulPartitionedCall/sequential_13_1/bidirectional_8_1/forward_lstm_50_1/strided_slice/stack_2"], "attr": {"begin_mask": {"i": "0"}, "T": {"type": "DT_INT32"}, "ellipsis_mask": {"i": "0"}, "shrink_axis_mask": {"i": "1"}, "Index": {"type": "DT_INT32"}, "new_axis_mask": {"i": "0"}, "end_mask": {"i": "0"}}}, {"name": "StatefulPartitionedCall/sequential_13_1/bidirectional_8_1/forward_lstm_50_1/strided_slice_2", "op": "StridedSlice", "input": ["StatefulPartitionedCall/sequential_13_1/bidirectional_8_1/forward_lstm_50_1/Shape_1", "StatefulPartitionedCall/sequential_13_1/bidirectional_8_1/forward_lstm_50_1/strided_slice_2/stack", "StatefulPartitionedCall/sequential_13_1/bidirectional_8_1/forward_lstm_50_1/strided_slice_2/stack_1", "StatefulPartitionedCall/sequential_13_1/bidirectional_8_1/forward_lstm_50_1/strided_slice_2/stack_2"], "attr": {"ellipsis_mask": {"i": "0"}, "Index": {"type": "DT_INT32"}, "T": {"type": "DT_INT32"}, "end_mask": {"i": "0"}, "shrink_axis_mask": {"i": "1"}, "new_axis_mask": {"i": "0"}, "begin_mask": {"i": "0"}}}, {"name": "StatefulPartitionedCall/sequential_13_1/bidirectional_8_1/forward_lstm_50_1/strided_slice_3", "op": "StridedSlice", "input": ["StatefulPartitionedCall/sequential_13_1/bidirectional_8_1/forward_lstm_50_1/Shape_2", "StatefulPartitionedCall/sequential_13_1/bidirectional_8_1/forward_lstm_50_1/strided_slice_3/stack", "StatefulPartitionedCall/sequential_13_1/bidirectional_8_1/forward_lstm_50_1/strided_slice_3/stack_1", "StatefulPartitionedCall/sequential_13_1/bidirectional_8_1/forward_lstm_50_1/strided_slice_3/stack_2"], "attr": {"Index": {"type": "DT_INT32"}, "begin_mask": {"i": "0"}, "shrink_axis_mask": {"i": "1"}, "T": {"type": "DT_INT32"}, "end_mask": {"i": "0"}, "ellipsis_mask": {"i": "0"}, "new_axis_mask": {"i": "0"}}}, {"name": "StatefulPartitionedCall/sequential_13_1/bidirectional_8_1/backward_lstm_50_1/strided_slice", "op": "StridedSlice", "input": ["StatefulPartitionedCall/sequential_13_1/bidirectional_8_1/backward_lstm_50_1/Shape", "StatefulPartitionedCall/sequential_13_1/bidirectional_8_1/backward_lstm_50_1/strided_slice/stack", "StatefulPartitionedCall/sequential_13_1/bidirectional_8_1/backward_lstm_50_1/strided_slice/stack_1", "StatefulPartitionedCall/sequential_13_1/bidirectional_8_1/backward_lstm_50_1/strided_slice/stack_2"], "attr": {"new_axis_mask": {"i": "0"}, "ellipsis_mask": {"i": "0"}, "Index": {"type": "DT_INT32"}, "end_mask": {"i": "0"}, "shrink_axis_mask": {"i": "1"}, "T": {"type": "DT_INT32"}, "begin_mask": {"i": "0"}}}, {"name": "StatefulPartitionedCall/sequential_13_1/bidirectional_8_1/backward_lstm_50_1/strided_slice_2", "op": "StridedSlice", "input": ["StatefulPartitionedCall/sequential_13_1/bidirectional_8_1/backward_lstm_50_1/Shape_1", "StatefulPartitionedCall/sequential_13_1/bidirectional_8_1/backward_lstm_50_1/strided_slice_2/stack", "StatefulPartitionedCall/sequential_13_1/bidirectional_8_1/backward_lstm_50_1/strided_slice_2/stack_1", "StatefulPartitionedCall/sequential_13_1/bidirectional_8_1/backward_lstm_50_1/strided_slice_2/stack_2"], "attr": {"Index": {"type": "DT_INT32"}, "T": {"type": "DT_INT32"}, "shrink_axis_mask": {"i": "1"}, "new_axis_mask": {"i": "0"}, "ellipsis_mask": {"i": "0"}, "begin_mask": {"i": "0"}, "end_mask": {"i": "0"}}}, {"name": "StatefulPartitionedCall/sequential_13_1/bidirectional_8_1/backward_lstm_50_1/strided_slice_3", "op": "StridedSlice", "input": ["StatefulPartitionedCall/sequential_13_1/bidirectional_8_1/backward_lstm_50_1/Shape_2", "StatefulPartitionedCall/sequential_13_1/bidirectional_8_1/backward_lstm_50_1/strided_slice_3/stack", "StatefulPartitionedCall/sequential_13_1/bidirectional_8_1/backward_lstm_50_1/strided_slice_3/stack_1", "StatefulPartitionedCall/sequential_13_1/bidirectional_8_1/backward_lstm_50_1/strided_slice_3/stack_2"], "attr": {"Index": {"type": "DT_INT32"}, "begin_mask": {"i": "0"}, "end_mask": {"i": "0"}, "T": {"type": "DT_INT32"}, "ellipsis_mask": {"i": "0"}, "new_axis_mask": {"i": "0"}, "shrink_axis_mask": {"i": "1"}}}, {"name": "StatefulPartitionedCall/sequential_13_1/bidirectional_8_1/forward_lstm_50_1/zeros/packed", "op": "Pack", "input": ["StatefulPartitionedCall/sequential_13_1/bidirectional_8_1/forward_lstm_50_1/strided_slice", "StatefulPartitionedCall/sequential_13_1/bidirectional_8_1/forward_lstm_50_1/zeros/packed/1"], "attr": {"T": {"type": "DT_INT32"}, "axis": {"i": "0"}, "N": {"i": "2"}}}, {"name": "StatefulPartitionedCall/sequential_13_1/bidirectional_8_1/forward_lstm_50_1/zeros_1/packed", "op": "Pack", "input": ["StatefulPartitionedCall/sequential_13_1/bidirectional_8_1/forward_lstm_50_1/strided_slice", "StatefulPartitionedCall/sequential_13_1/bidirectional_8_1/forward_lstm_50_1/zeros_1/packed/1"], "attr": {"T": {"type": "DT_INT32"}, "N": {"i": "2"}, "axis": {"i": "0"}}}, {"name": "ConstantFolding/StatefulPartitionedCall/sequential_13_1/bidirectional_8_1/forward_lstm_50_1/Fill/dims_const_axis", "op": "Const", "input": ["^StatefulPartitionedCall/sequential_13_1/bidirectional_8_1/forward_lstm_50_1/strided_slice_2"], "attr": {"dtype": {"type": "DT_INT32"}, "value": {"tensor": {"dtype": "DT_INT32", "tensorShape": {}}}}}, {"name": "StatefulPartitionedCall/sequential_13_1/bidirectional_8_1/backward_lstm_50_1/zeros/packed", "op": "Pack", "input": ["StatefulPartitionedCall/sequential_13_1/bidirectional_8_1/backward_lstm_50_1/strided_slice", "StatefulPartitionedCall/sequential_13_1/bidirectional_8_1/backward_lstm_50_1/zeros/packed/1"], "attr": {"axis": {"i": "0"}, "N": {"i": "2"}, "T": {"type": "DT_INT32"}}}, {"name": "StatefulPartitionedCall/sequential_13_1/bidirectional_8_1/backward_lstm_50_1/zeros_1/packed", "op": "Pack", "input": ["StatefulPartitionedCall/sequential_13_1/bidirectional_8_1/backward_lstm_50_1/strided_slice", "StatefulPartitionedCall/sequential_13_1/bidirectional_8_1/backward_lstm_50_1/zeros_1/packed/1"], "attr": {"T": {"type": "DT_INT32"}, "N": {"i": "2"}, "axis": {"i": "0"}}}, {"name": "ConstantFolding/StatefulPartitionedCall/sequential_13_1/bidirectional_8_1/backward_lstm_50_1/Fill/dims_const_axis", "op": "Const", "input": ["^StatefulPartitionedCall/sequential_13_1/bidirectional_8_1/backward_lstm_50_1/strided_slice_2"], "attr": {"dtype": {"type": "DT_INT32"}, "value": {"tensor": {"dtype": "DT_INT32", "tensorShape": {}}}}}, {"name": "StatefulPartitionedCall/sequential_13_1/bidirectional_8_1/forward_lstm_50_1/zeros", "op": "Fill", "input": ["StatefulPartitionedCall/sequential_13_1/bidirectional_8_1/forward_lstm_50_1/zeros/packed", "StatefulPartitionedCall/sequential_13_1/bidirectional_8_1/forward_lstm_50_1/zeros/Const"], "attr": {"T": {"type": "DT_FLOAT"}, "index_type": {"type": "DT_INT32"}}}, {"name": "StatefulPartitionedCall/sequential_13_1/bidirectional_8_1/forward_lstm_50_1/zeros_1", "op": "Fill", "input": ["StatefulPartitionedCall/sequential_13_1/bidirectional_8_1/forward_lstm_50_1/zeros_1/packed", "StatefulPartitionedCall/sequential_13_1/bidirectional_8_1/forward_lstm_50_1/zeros_1/Const"], "attr": {"T": {"type": "DT_FLOAT"}, "index_type": {"type": "DT_INT32"}}}, {"name": "StatefulPartitionedCall/sequential_13_1/bidirectional_8_1/forward_lstm_50_1/Fill/dims", "op": "ExpandDims", "input": ["StatefulPartitionedCall/sequential_13_1/bidirectional_8_1/forward_lstm_50_1/strided_slice_2", "ConstantFolding/StatefulPartitionedCall/sequential_13_1/bidirectional_8_1/forward_lstm_50_1/Fill/dims_const_axis"], "attr": {"Tdim": {"type": "DT_INT32"}, "T": {"type": "DT_INT32"}}}, {"name": "StatefulPartitionedCall/sequential_13_1/bidirectional_8_1/backward_lstm_50_1/zeros", "op": "Fill", "input": ["StatefulPartitionedCall/sequential_13_1/bidirectional_8_1/backward_lstm_50_1/zeros/packed", "StatefulPartitionedCall/sequential_13_1/bidirectional_8_1/backward_lstm_50_1/zeros/Const"], "attr": {"T": {"type": "DT_FLOAT"}, "index_type": {"type": "DT_INT32"}}}, {"name": "StatefulPartitionedCall/sequential_13_1/bidirectional_8_1/backward_lstm_50_1/zeros_1", "op": "Fill", "input": ["StatefulPartitionedCall/sequential_13_1/bidirectional_8_1/backward_lstm_50_1/zeros_1/packed", "StatefulPartitionedCall/sequential_13_1/bidirectional_8_1/backward_lstm_50_1/zeros_1/Const"], "attr": {"T": {"type": "DT_FLOAT"}, "index_type": {"type": "DT_INT32"}}}, {"name": "StatefulPartitionedCall/sequential_13_1/bidirectional_8_1/backward_lstm_50_1/Fill/dims", "op": "ExpandDims", "input": ["StatefulPartitionedCall/sequential_13_1/bidirectional_8_1/backward_lstm_50_1/strided_slice_2", "ConstantFolding/StatefulPartitionedCall/sequential_13_1/bidirectional_8_1/backward_lstm_50_1/Fill/dims_const_axis"], "attr": {"Tdim": {"type": "DT_INT32"}, "T": {"type": "DT_INT32"}}}, {"name": "StatefulPartitionedCall/sequential_13_1/bidirectional_8_1/forward_lstm_50_1/ExpandDims", "op": "ExpandDims", "input": ["StatefulPartitionedCall/sequential_13_1/bidirectional_8_1/forward_lstm_50_1/zeros", "StatefulPartitionedCall/sequential_13_1/bidirectional_8_1/forward_lstm_50_1/ExpandDims/dim"], "attr": {"Tdim": {"type": "DT_INT32"}, "T": {"type": "DT_FLOAT"}}}, {"name": "StatefulPartitionedCall/sequential_13_1/bidirectional_8_1/forward_lstm_50_1/ExpandDims_1", "op": "ExpandDims", "input": ["StatefulPartitionedCall/sequential_13_1/bidirectional_8_1/forward_lstm_50_1/zeros_1", "StatefulPartitionedCall/sequential_13_1/bidirectional_8_1/forward_lstm_50_1/ExpandDims_1/dim"], "attr": {"Tdim": {"type": "DT_INT32"}, "T": {"type": "DT_FLOAT"}}}, {"name": "StatefulPartitionedCall/sequential_13_1/bidirectional_8_1/forward_lstm_50_1/Fill", "op": "Fill", "input": ["StatefulPartitionedCall/sequential_13_1/bidirectional_8_1/forward_lstm_50_1/Fill/dims", "StatefulPartitionedCall/sequential_13_1/bidirectional_8_1/forward_lstm_50_1/strided_slice_3"], "attr": {"index_type": {"type": "DT_INT32"}, "T": {"type": "DT_INT32"}}}, {"name": "StatefulPartitionedCall/sequential_13_1/bidirectional_8_1/backward_lstm_50_1/ExpandDims", "op": "ExpandDims", "input": ["StatefulPartitionedCall/sequential_13_1/bidirectional_8_1/backward_lstm_50_1/zeros", "StatefulPartitionedCall/sequential_13_1/bidirectional_8_1/backward_lstm_50_1/ExpandDims/dim"], "attr": {"T": {"type": "DT_FLOAT"}, "Tdim": {"type": "DT_INT32"}}}, {"name": "StatefulPartitionedCall/sequential_13_1/bidirectional_8_1/backward_lstm_50_1/ExpandDims_1", "op": "ExpandDims", "input": ["StatefulPartitionedCall/sequential_13_1/bidirectional_8_1/backward_lstm_50_1/zeros_1", "StatefulPartitionedCall/sequential_13_1/bidirectional_8_1/backward_lstm_50_1/ExpandDims_1/dim"], "attr": {"Tdim": {"type": "DT_INT32"}, "T": {"type": "DT_FLOAT"}}}, {"name": "StatefulPartitionedCall/sequential_13_1/bidirectional_8_1/backward_lstm_50_1/Fill", "op": "Fill", "input": ["StatefulPartitionedCall/sequential_13_1/bidirectional_8_1/backward_lstm_50_1/Fill/dims", "StatefulPartitionedCall/sequential_13_1/bidirectional_8_1/backward_lstm_50_1/strided_slice_3"], "attr": {"index_type": {"type": "DT_INT32"}, "T": {"type": "DT_INT32"}}}, {"name": "StatefulPartitionedCall/sequential_13_1/bidirectional_8_1/forward_lstm_50_1/CudnnRNNV3", "op": "CudnnRNNV3", "input": ["keras_tensor_891", "StatefulPartitionedCall/sequential_13_1/bidirectional_8_1/forward_lstm_50_1/ExpandDims", "StatefulPartitionedCall/sequential_13_1/bidirectional_8_1/forward_lstm_50_1/ExpandDims_1", "StatefulPartitionedCall/sequential_13_1/bidirectional_8_1/forward_lstm_50_1/concat_1", "StatefulPartitionedCall/sequential_13_1/bidirectional_8_1/forward_lstm_50_1/Fill"], "attr": {"is_training": {"b": true}, "dropout": {"f": 0.0}, "rnn_mode": {"s": "bHN0bQ=="}, "T": {"type": "DT_FLOAT"}, "direction": {"s": "dW5pZGlyZWN0aW9uYWw="}, "time_major": {"b": false}, "seed2": {"i": "0"}, "num_proj": {"i": "0"}, "seed": {"i": "0"}, "input_mode": {"s": "bGluZWFyX2lucHV0"}}}, {"name": "StatefulPartitionedCall/sequential_13_1/bidirectional_8_1/backward_lstm_50_1/ReverseSequence", "op": "ReverseSequence", "input": ["keras_tensor_891", "StatefulPartitionedCall/sequential_13_1/bidirectional_8_1/backward_lstm_50_1/Fill"], "attr": {"batch_dim": {"i": "0"}, "Tlen": {"type": "DT_INT32"}, "T": {"type": "DT_FLOAT"}, "seq_dim": {"i": "1"}}}, {"name": "StatefulPartitionedCall/sequential_13_1/bidirectional_8_1/backward_lstm_50_1/CudnnRNNV3", "op": "CudnnRNNV3", "input": ["StatefulPartitionedCall/sequential_13_1/bidirectional_8_1/backward_lstm_50_1/ReverseSequence", "StatefulPartitionedCall/sequential_13_1/bidirectional_8_1/backward_lstm_50_1/ExpandDims", "StatefulPartitionedCall/sequential_13_1/bidirectional_8_1/backward_lstm_50_1/ExpandDims_1", "StatefulPartitionedCall/sequential_13_1/bidirectional_8_1/backward_lstm_50_1/concat_1", "StatefulPartitionedCall/sequential_13_1/bidirectional_8_1/backward_lstm_50_1/Fill"], "attr": {"num_proj": {"i": "0"}, "input_mode": {"s": "bGluZWFyX2lucHV0"}, "direction": {"s": "dW5pZGlyZWN0aW9uYWw="}, "time_major": {"b": false}, "T": {"type": "DT_FLOAT"}, "seed2": {"i": "0"}, "dropout": {"f": 0.0}, "seed": {"i": "0"}, "is_training": {"b": true}, "rnn_mode": {"s": "bHN0bQ=="}}}, {"name": "StatefulPartitionedCall/sequential_13_1/bidirectional_8_1/backward_lstm_50_1/ReverseSequence_1", "op": "ReverseSequence", "input": ["StatefulPartitionedCall/sequential_13_1/bidirectional_8_1/backward_lstm_50_1/CudnnRNNV3", "StatefulPartitionedCall/sequential_13_1/bidirectional_8_1/backward_lstm_50_1/Fill"], "attr": {"T": {"type": "DT_FLOAT"}, "batch_dim": {"i": "0"}, "seq_dim": {"i": "1"}, "Tlen": {"type": "DT_INT32"}}}, {"name": "StatefulPartitionedCall/sequential_13_1/bidirectional_8_1/backward_lstm_50_1/ReverseV2", "op": "ReverseV2", "input": ["StatefulPartitionedCall/sequential_13_1/bidirectional_8_1/backward_lstm_50_1/ReverseSequence_1", "StatefulPartitionedCall/sequential_13_1/bidirectional_8_1/backward_lstm_50_1/ReverseV2/axis"], "attr": {"Tidx": {"type": "DT_INT32"}, "T": {"type": "DT_FLOAT"}}}, {"name": "StatefulPartitionedCall/sequential_13_1/bidirectional_8_1/ReverseV2", "op": "ReverseV2", "input": ["StatefulPartitionedCall/sequential_13_1/bidirectional_8_1/backward_lstm_50_1/ReverseV2", "StatefulPartitionedCall/sequential_13_1/bidirectional_8_1/ReverseV2/axis"], "attr": {"T": {"type": "DT_FLOAT"}, "Tidx": {"type": "DT_INT32"}}}, {"name": "StatefulPartitionedCall/sequential_13_1/bidirectional_8_1/concat", "op": "ConcatV2", "input": ["StatefulPartitionedCall/sequential_13_1/bidirectional_8_1/forward_lstm_50_1/CudnnRNNV3", "StatefulPartitionedCall/sequential_13_1/bidirectional_8_1/ReverseV2", "StatefulPartitionedCall/sequential_13_1/bidirectional_8_1/concat/axis"], "attr": {"Tidx": {"type": "DT_INT32"}, "T": {"type": "DT_FLOAT"}, "N": {"i": "2"}}}, {"name": "StatefulPartitionedCall/sequential_13_1/lstm_51_1/Shape", "op": "Shape", "input": ["StatefulPartitionedCall/sequential_13_1/bidirectional_8_1/concat"], "attr": {"out_type": {"type": "DT_INT32"}, "T": {"type": "DT_FLOAT"}}, "experimentalType": {"typeId": "TFT_PRODUCT", "args": [{"typeId": "TFT_SHAPE_TENSOR", "args": [{"typeId": "TFT_INT32"}]}]}}, {"name": "StatefulPartitionedCall/sequential_13_1/lstm_51_1/Shape_1", "op": "Shape", "input": ["StatefulPartitionedCall/sequential_13_1/bidirectional_8_1/concat"], "attr": {"out_type": {"type": "DT_INT32"}, "T": {"type": "DT_FLOAT"}}, "experimentalType": {"typeId": "TFT_PRODUCT", "args": [{"typeId": "TFT_SHAPE_TENSOR", "args": [{"typeId": "TFT_INT32"}]}]}}, {"name": "StatefulPartitionedCall/sequential_13_1/lstm_51_1/Shape_2", "op": "Shape", "input": ["StatefulPartitionedCall/sequential_13_1/bidirectional_8_1/concat"], "attr": {"out_type": {"type": "DT_INT32"}, "T": {"type": "DT_FLOAT"}}, "experimentalType": {"typeId": "TFT_PRODUCT", "args": [{"typeId": "TFT_SHAPE_TENSOR", "args": [{"typeId": "TFT_INT32"}]}]}}, {"name": "StatefulPartitionedCall/sequential_13_1/lstm_51_1/strided_slice", "op": "StridedSlice", "input": ["StatefulPartitionedCall/sequential_13_1/lstm_51_1/Shape", "StatefulPartitionedCall/sequential_13_1/lstm_51_1/strided_slice/stack", "StatefulPartitionedCall/sequential_13_1/lstm_51_1/strided_slice/stack_1", "StatefulPartitionedCall/sequential_13_1/lstm_51_1/strided_slice/stack_2"], "attr": {"ellipsis_mask": {"i": "0"}, "begin_mask": {"i": "0"}, "shrink_axis_mask": {"i": "1"}, "new_axis_mask": {"i": "0"}, "T": {"type": "DT_INT32"}, "Index": {"type": "DT_INT32"}, "end_mask": {"i": "0"}}}, {"name": "StatefulPartitionedCall/sequential_13_1/lstm_51_1/strided_slice_2", "op": "StridedSlice", "input": ["StatefulPartitionedCall/sequential_13_1/lstm_51_1/Shape_1", "StatefulPartitionedCall/sequential_13_1/lstm_51_1/strided_slice_2/stack", "StatefulPartitionedCall/sequential_13_1/lstm_51_1/strided_slice_2/stack_1", "StatefulPartitionedCall/sequential_13_1/lstm_51_1/strided_slice_2/stack_2"], "attr": {"shrink_axis_mask": {"i": "1"}, "ellipsis_mask": {"i": "0"}, "new_axis_mask": {"i": "0"}, "begin_mask": {"i": "0"}, "Index": {"type": "DT_INT32"}, "end_mask": {"i": "0"}, "T": {"type": "DT_INT32"}}}, {"name": "StatefulPartitionedCall/sequential_13_1/lstm_51_1/strided_slice_3", "op": "StridedSlice", "input": ["StatefulPartitionedCall/sequential_13_1/lstm_51_1/Shape_2", "StatefulPartitionedCall/sequential_13_1/lstm_51_1/strided_slice_3/stack", "StatefulPartitionedCall/sequential_13_1/lstm_51_1/strided_slice_3/stack_1", "StatefulPartitionedCall/sequential_13_1/lstm_51_1/strided_slice_3/stack_2"], "attr": {"new_axis_mask": {"i": "0"}, "end_mask": {"i": "0"}, "ellipsis_mask": {"i": "0"}, "T": {"type": "DT_INT32"}, "begin_mask": {"i": "0"}, "Index": {"type": "DT_INT32"}, "shrink_axis_mask": {"i": "1"}}}, {"name": "StatefulPartitionedCall/sequential_13_1/lstm_51_1/zeros/packed", "op": "Pack", "input": ["StatefulPartitionedCall/sequential_13_1/lstm_51_1/strided_slice", "StatefulPartitionedCall/sequential_13_1/lstm_51_1/zeros/packed/1"], "attr": {"T": {"type": "DT_INT32"}, "N": {"i": "2"}, "axis": {"i": "0"}}}, {"name": "StatefulPartitionedCall/sequential_13_1/lstm_51_1/zeros_1/packed", "op": "Pack", "input": ["StatefulPartitionedCall/sequential_13_1/lstm_51_1/strided_slice", "StatefulPartitionedCall/sequential_13_1/lstm_51_1/zeros_1/packed/1"], "attr": {"N": {"i": "2"}, "axis": {"i": "0"}, "T": {"type": "DT_INT32"}}}, {"name": "ConstantFolding/StatefulPartitionedCall/sequential_13_1/lstm_51_1/Fill/dims_const_axis", "op": "Const", "input": ["^StatefulPartitionedCall/sequential_13_1/lstm_51_1/strided_slice_2"], "attr": {"value": {"tensor": {"dtype": "DT_INT32", "tensorShape": {}}}, "dtype": {"type": "DT_INT32"}}}, {"name": "StatefulPartitionedCall/sequential_13_1/lstm_51_1/zeros", "op": "Fill", "input": ["StatefulPartitionedCall/sequential_13_1/lstm_51_1/zeros/packed", "StatefulPartitionedCall/sequential_13_1/lstm_51_1/zeros/Const"], "attr": {"index_type": {"type": "DT_INT32"}, "T": {"type": "DT_FLOAT"}}}, {"name": "StatefulPartitionedCall/sequential_13_1/lstm_51_1/zeros_1", "op": "Fill", "input": ["StatefulPartitionedCall/sequential_13_1/lstm_51_1/zeros_1/packed", "StatefulPartitionedCall/sequential_13_1/lstm_51_1/zeros_1/Const"], "attr": {"index_type": {"type": "DT_INT32"}, "T": {"type": "DT_FLOAT"}}}, {"name": "StatefulPartitionedCall/sequential_13_1/lstm_51_1/Fill/dims", "op": "ExpandDims", "input": ["StatefulPartitionedCall/sequential_13_1/lstm_51_1/strided_slice_2", "ConstantFolding/StatefulPartitionedCall/sequential_13_1/lstm_51_1/Fill/dims_const_axis"], "attr": {"T": {"type": "DT_INT32"}, "Tdim": {"type": "DT_INT32"}}}, {"name": "StatefulPartitionedCall/sequential_13_1/lstm_51_1/ExpandDims", "op": "ExpandDims", "input": ["StatefulPartitionedCall/sequential_13_1/lstm_51_1/zeros", "StatefulPartitionedCall/sequential_13_1/lstm_51_1/ExpandDims/dim"], "attr": {"Tdim": {"type": "DT_INT32"}, "T": {"type": "DT_FLOAT"}}}, {"name": "StatefulPartitionedCall/sequential_13_1/lstm_51_1/ExpandDims_1", "op": "ExpandDims", "input": ["StatefulPartitionedCall/sequential_13_1/lstm_51_1/zeros_1", "StatefulPartitionedCall/sequential_13_1/lstm_51_1/ExpandDims_1/dim"], "attr": {"Tdim": {"type": "DT_INT32"}, "T": {"type": "DT_FLOAT"}}}, {"name": "StatefulPartitionedCall/sequential_13_1/lstm_51_1/Fill", "op": "Fill", "input": ["StatefulPartitionedCall/sequential_13_1/lstm_51_1/Fill/dims", "StatefulPartitionedCall/sequential_13_1/lstm_51_1/strided_slice_3"], "attr": {"index_type": {"type": "DT_INT32"}, "T": {"type": "DT_INT32"}}}, {"name": "StatefulPartitionedCall/sequential_13_1/lstm_51_1/CudnnRNNV3", "op": "CudnnRNNV3", "input": ["StatefulPartitionedCall/sequential_13_1/bidirectional_8_1/concat", "StatefulPartitionedCall/sequential_13_1/lstm_51_1/ExpandDims", "StatefulPartitionedCall/sequential_13_1/lstm_51_1/ExpandDims_1", "StatefulPartitionedCall/sequential_13_1/lstm_51_1/concat_1", "StatefulPartitionedCall/sequential_13_1/lstm_51_1/Fill"], "attr": {"seed2": {"i": "0"}, "dropout": {"f": 0.0}, "time_major": {"b": false}, "seed": {"i": "0"}, "rnn_mode": {"s": "bHN0bQ=="}, "num_proj": {"i": "0"}, "input_mode": {"s": "bGluZWFyX2lucHV0"}, "direction": {"s": "dW5pZGlyZWN0aW9uYWw="}, "is_training": {"b": true}, "T": {"type": "DT_FLOAT"}}}, {"name": "StatefulPartitionedCall/sequential_13_1/lstm_52_1/Shape", "op": "Shape", "input": ["StatefulPartitionedCall/sequential_13_1/lstm_51_1/CudnnRNNV3"], "attr": {"out_type": {"type": "DT_INT32"}, "T": {"type": "DT_FLOAT"}}, "experimentalType": {"typeId": "TFT_PRODUCT", "args": [{"typeId": "TFT_SHAPE_TENSOR", "args": [{"typeId": "TFT_INT32"}]}]}}, {"name": "StatefulPartitionedCall/sequential_13_1/lstm_52_1/Shape_1", "op": "Shape", "input": ["StatefulPartitionedCall/sequential_13_1/lstm_51_1/CudnnRNNV3"], "attr": {"out_type": {"type": "DT_INT32"}, "T": {"type": "DT_FLOAT"}}, "experimentalType": {"typeId": "TFT_PRODUCT", "args": [{"typeId": "TFT_SHAPE_TENSOR", "args": [{"typeId": "TFT_INT32"}]}]}}, {"name": "StatefulPartitionedCall/sequential_13_1/lstm_52_1/Shape_2", "op": "Shape", "input": ["StatefulPartitionedCall/sequential_13_1/lstm_51_1/CudnnRNNV3"], "attr": {"out_type": {"type": "DT_INT32"}, "T": {"type": "DT_FLOAT"}}, "experimentalType": {"typeId": "TFT_PRODUCT", "args": [{"typeId": "TFT_SHAPE_TENSOR", "args": [{"typeId": "TFT_INT32"}]}]}}, {"name": "StatefulPartitionedCall/sequential_13_1/lstm_52_1/strided_slice", "op": "StridedSlice", "input": ["StatefulPartitionedCall/sequential_13_1/lstm_52_1/Shape", "StatefulPartitionedCall/sequential_13_1/lstm_52_1/strided_slice/stack", "StatefulPartitionedCall/sequential_13_1/lstm_52_1/strided_slice/stack_1", "StatefulPartitionedCall/sequential_13_1/lstm_52_1/strided_slice/stack_2"], "attr": {"shrink_axis_mask": {"i": "1"}, "T": {"type": "DT_INT32"}, "ellipsis_mask": {"i": "0"}, "begin_mask": {"i": "0"}, "new_axis_mask": {"i": "0"}, "end_mask": {"i": "0"}, "Index": {"type": "DT_INT32"}}}, {"name": "StatefulPartitionedCall/sequential_13_1/lstm_52_1/strided_slice_2", "op": "StridedSlice", "input": ["StatefulPartitionedCall/sequential_13_1/lstm_52_1/Shape_1", "StatefulPartitionedCall/sequential_13_1/lstm_52_1/strided_slice_2/stack", "StatefulPartitionedCall/sequential_13_1/lstm_52_1/strided_slice_2/stack_1", "StatefulPartitionedCall/sequential_13_1/lstm_52_1/strided_slice_2/stack_2"], "attr": {"T": {"type": "DT_INT32"}, "begin_mask": {"i": "0"}, "new_axis_mask": {"i": "0"}, "Index": {"type": "DT_INT32"}, "shrink_axis_mask": {"i": "1"}, "end_mask": {"i": "0"}, "ellipsis_mask": {"i": "0"}}}, {"name": "StatefulPartitionedCall/sequential_13_1/lstm_52_1/strided_slice_3", "op": "StridedSlice", "input": ["StatefulPartitionedCall/sequential_13_1/lstm_52_1/Shape_2", "StatefulPartitionedCall/sequential_13_1/lstm_52_1/strided_slice_3/stack", "StatefulPartitionedCall/sequential_13_1/lstm_52_1/strided_slice_3/stack_1", "StatefulPartitionedCall/sequential_13_1/lstm_52_1/strided_slice_3/stack_2"], "attr": {"begin_mask": {"i": "0"}, "new_axis_mask": {"i": "0"}, "shrink_axis_mask": {"i": "1"}, "end_mask": {"i": "0"}, "T": {"type": "DT_INT32"}, "ellipsis_mask": {"i": "0"}, "Index": {"type": "DT_INT32"}}}, {"name": "StatefulPartitionedCall/sequential_13_1/lstm_52_1/zeros/packed", "op": "Pack", "input": ["StatefulPartitionedCall/sequential_13_1/lstm_52_1/strided_slice", "StatefulPartitionedCall/sequential_13_1/lstm_52_1/zeros/packed/1"], "attr": {"T": {"type": "DT_INT32"}, "axis": {"i": "0"}, "N": {"i": "2"}}}, {"name": "StatefulPartitionedCall/sequential_13_1/lstm_52_1/zeros_1/packed", "op": "Pack", "input": ["StatefulPartitionedCall/sequential_13_1/lstm_52_1/strided_slice", "StatefulPartitionedCall/sequential_13_1/lstm_52_1/zeros_1/packed/1"], "attr": {"N": {"i": "2"}, "axis": {"i": "0"}, "T": {"type": "DT_INT32"}}}, {"name": "ConstantFolding/StatefulPartitionedCall/sequential_13_1/lstm_52_1/Fill/dims_const_axis", "op": "Const", "input": ["^StatefulPartitionedCall/sequential_13_1/lstm_52_1/strided_slice_2"], "attr": {"value": {"tensor": {"dtype": "DT_INT32", "tensorShape": {}}}, "dtype": {"type": "DT_INT32"}}}, {"name": "StatefulPartitionedCall/sequential_13_1/lstm_52_1/zeros", "op": "Fill", "input": ["StatefulPartitionedCall/sequential_13_1/lstm_52_1/zeros/packed", "StatefulPartitionedCall/sequential_13_1/lstm_52_1/zeros/Const"], "attr": {"index_type": {"type": "DT_INT32"}, "T": {"type": "DT_FLOAT"}}}, {"name": "StatefulPartitionedCall/sequential_13_1/lstm_52_1/zeros_1", "op": "Fill", "input": ["StatefulPartitionedCall/sequential_13_1/lstm_52_1/zeros_1/packed", "StatefulPartitionedCall/sequential_13_1/lstm_52_1/zeros_1/Const"], "attr": {"index_type": {"type": "DT_INT32"}, "T": {"type": "DT_FLOAT"}}}, {"name": "StatefulPartitionedCall/sequential_13_1/lstm_52_1/Fill/dims", "op": "ExpandDims", "input": ["StatefulPartitionedCall/sequential_13_1/lstm_52_1/strided_slice_2", "ConstantFolding/StatefulPartitionedCall/sequential_13_1/lstm_52_1/Fill/dims_const_axis"], "attr": {"Tdim": {"type": "DT_INT32"}, "T": {"type": "DT_INT32"}}}, {"name": "StatefulPartitionedCall/sequential_13_1/lstm_52_1/ExpandDims", "op": "ExpandDims", "input": ["StatefulPartitionedCall/sequential_13_1/lstm_52_1/zeros", "StatefulPartitionedCall/sequential_13_1/lstm_52_1/ExpandDims/dim"], "attr": {"Tdim": {"type": "DT_INT32"}, "T": {"type": "DT_FLOAT"}}}, {"name": "StatefulPartitionedCall/sequential_13_1/lstm_52_1/ExpandDims_1", "op": "ExpandDims", "input": ["StatefulPartitionedCall/sequential_13_1/lstm_52_1/zeros_1", "StatefulPartitionedCall/sequential_13_1/lstm_52_1/ExpandDims_1/dim"], "attr": {"T": {"type": "DT_FLOAT"}, "Tdim": {"type": "DT_INT32"}}}, {"name": "StatefulPartitionedCall/sequential_13_1/lstm_52_1/Fill", "op": "Fill", "input": ["StatefulPartitionedCall/sequential_13_1/lstm_52_1/Fill/dims", "StatefulPartitionedCall/sequential_13_1/lstm_52_1/strided_slice_3"], "attr": {"index_type": {"type": "DT_INT32"}, "T": {"type": "DT_INT32"}}}, {"name": "StatefulPartitionedCall/sequential_13_1/lstm_52_1/CudnnRNNV3", "op": "CudnnRNNV3", "input": ["StatefulPartitionedCall/sequential_13_1/lstm_51_1/CudnnRNNV3", "StatefulPartitionedCall/sequential_13_1/lstm_52_1/ExpandDims", "StatefulPartitionedCall/sequential_13_1/lstm_52_1/ExpandDims_1", "StatefulPartitionedCall/sequential_13_1/lstm_52_1/concat_1", "StatefulPartitionedCall/sequential_13_1/lstm_52_1/Fill"], "attr": {"seed": {"i": "0"}, "direction": {"s": "dW5pZGlyZWN0aW9uYWw="}, "input_mode": {"s": "bGluZWFyX2lucHV0"}, "num_proj": {"i": "0"}, "time_major": {"b": false}, "seed2": {"i": "0"}, "T": {"type": "DT_FLOAT"}, "dropout": {"f": 0.0}, "rnn_mode": {"s": "bHN0bQ=="}, "is_training": {"b": true}}}, {"name": "StatefulPartitionedCall/sequential_13_1/lstm_53_1/Shape", "op": "Shape", "input": ["StatefulPartitionedCall/sequential_13_1/lstm_52_1/CudnnRNNV3"], "attr": {"T": {"type": "DT_FLOAT"}, "out_type": {"type": "DT_INT32"}}, "experimentalType": {"typeId": "TFT_PRODUCT", "args": [{"typeId": "TFT_SHAPE_TENSOR", "args": [{"typeId": "TFT_INT32"}]}]}}, {"name": "StatefulPartitionedCall/sequential_13_1/lstm_53_1/Shape_1", "op": "Shape", "input": ["StatefulPartitionedCall/sequential_13_1/lstm_52_1/CudnnRNNV3"], "attr": {"T": {"type": "DT_FLOAT"}, "out_type": {"type": "DT_INT32"}}, "experimentalType": {"typeId": "TFT_PRODUCT", "args": [{"typeId": "TFT_SHAPE_TENSOR", "args": [{"typeId": "TFT_INT32"}]}]}}, {"name": "StatefulPartitionedCall/sequential_13_1/lstm_53_1/Shape_2", "op": "Shape", "input": ["StatefulPartitionedCall/sequential_13_1/lstm_52_1/CudnnRNNV3"], "attr": {"T": {"type": "DT_FLOAT"}, "out_type": {"type": "DT_INT32"}}, "experimentalType": {"typeId": "TFT_PRODUCT", "args": [{"typeId": "TFT_SHAPE_TENSOR", "args": [{"typeId": "TFT_INT32"}]}]}}, {"name": "StatefulPartitionedCall/sequential_13_1/lstm_53_1/strided_slice", "op": "StridedSlice", "input": ["StatefulPartitionedCall/sequential_13_1/lstm_53_1/Shape", "StatefulPartitionedCall/sequential_13_1/lstm_53_1/strided_slice/stack", "StatefulPartitionedCall/sequential_13_1/lstm_53_1/strided_slice/stack_1", "StatefulPartitionedCall/sequential_13_1/lstm_53_1/strided_slice/stack_2"], "attr": {"shrink_axis_mask": {"i": "1"}, "T": {"type": "DT_INT32"}, "ellipsis_mask": {"i": "0"}, "begin_mask": {"i": "0"}, "end_mask": {"i": "0"}, "new_axis_mask": {"i": "0"}, "Index": {"type": "DT_INT32"}}}, {"name": "StatefulPartitionedCall/sequential_13_1/lstm_53_1/strided_slice_2", "op": "StridedSlice", "input": ["StatefulPartitionedCall/sequential_13_1/lstm_53_1/Shape_1", "StatefulPartitionedCall/sequential_13_1/lstm_53_1/strided_slice_2/stack", "StatefulPartitionedCall/sequential_13_1/lstm_53_1/strided_slice_2/stack_1", "StatefulPartitionedCall/sequential_13_1/lstm_53_1/strided_slice_2/stack_2"], "attr": {"new_axis_mask": {"i": "0"}, "ellipsis_mask": {"i": "0"}, "end_mask": {"i": "0"}, "Index": {"type": "DT_INT32"}, "shrink_axis_mask": {"i": "1"}, "begin_mask": {"i": "0"}, "T": {"type": "DT_INT32"}}}, {"name": "StatefulPartitionedCall/sequential_13_1/lstm_53_1/strided_slice_3", "op": "StridedSlice", "input": ["StatefulPartitionedCall/sequential_13_1/lstm_53_1/Shape_2", "StatefulPartitionedCall/sequential_13_1/lstm_53_1/strided_slice_3/stack", "StatefulPartitionedCall/sequential_13_1/lstm_53_1/strided_slice_3/stack_1", "StatefulPartitionedCall/sequential_13_1/lstm_53_1/strided_slice_3/stack_2"], "attr": {"Index": {"type": "DT_INT32"}, "ellipsis_mask": {"i": "0"}, "end_mask": {"i": "0"}, "shrink_axis_mask": {"i": "1"}, "new_axis_mask": {"i": "0"}, "T": {"type": "DT_INT32"}, "begin_mask": {"i": "0"}}}, {"name": "StatefulPartitionedCall/sequential_13_1/lstm_53_1/zeros/packed", "op": "Pack", "input": ["StatefulPartitionedCall/sequential_13_1/lstm_53_1/strided_slice", "StatefulPartitionedCall/sequential_13_1/lstm_53_1/zeros/packed/1"], "attr": {"T": {"type": "DT_INT32"}, "N": {"i": "2"}, "axis": {"i": "0"}}}, {"name": "StatefulPartitionedCall/sequential_13_1/lstm_53_1/zeros_1/packed", "op": "Pack", "input": ["StatefulPartitionedCall/sequential_13_1/lstm_53_1/strided_slice", "StatefulPartitionedCall/sequential_13_1/lstm_53_1/zeros_1/packed/1"], "attr": {"axis": {"i": "0"}, "T": {"type": "DT_INT32"}, "N": {"i": "2"}}}, {"name": "ConstantFolding/StatefulPartitionedCall/sequential_13_1/lstm_53_1/Fill/dims_const_axis", "op": "Const", "input": ["^StatefulPartitionedCall/sequential_13_1/lstm_53_1/strided_slice_2"], "attr": {"dtype": {"type": "DT_INT32"}, "value": {"tensor": {"dtype": "DT_INT32", "tensorShape": {}}}}}, {"name": "StatefulPartitionedCall/sequential_13_1/lstm_53_1/zeros", "op": "Fill", "input": ["StatefulPartitionedCall/sequential_13_1/lstm_53_1/zeros/packed", "StatefulPartitionedCall/sequential_13_1/lstm_53_1/zeros/Const"], "attr": {"index_type": {"type": "DT_INT32"}, "T": {"type": "DT_FLOAT"}}}, {"name": "StatefulPartitionedCall/sequential_13_1/lstm_53_1/zeros_1", "op": "Fill", "input": ["StatefulPartitionedCall/sequential_13_1/lstm_53_1/zeros_1/packed", "StatefulPartitionedCall/sequential_13_1/lstm_53_1/zeros_1/Const"], "attr": {"T": {"type": "DT_FLOAT"}, "index_type": {"type": "DT_INT32"}}}, {"name": "StatefulPartitionedCall/sequential_13_1/lstm_53_1/Fill/dims", "op": "ExpandDims", "input": ["StatefulPartitionedCall/sequential_13_1/lstm_53_1/strided_slice_2", "ConstantFolding/StatefulPartitionedCall/sequential_13_1/lstm_53_1/Fill/dims_const_axis"], "attr": {"Tdim": {"type": "DT_INT32"}, "T": {"type": "DT_INT32"}}}, {"name": "StatefulPartitionedCall/sequential_13_1/lstm_53_1/ExpandDims", "op": "ExpandDims", "input": ["StatefulPartitionedCall/sequential_13_1/lstm_53_1/zeros", "StatefulPartitionedCall/sequential_13_1/lstm_53_1/ExpandDims/dim"], "attr": {"Tdim": {"type": "DT_INT32"}, "T": {"type": "DT_FLOAT"}}}, {"name": "StatefulPartitionedCall/sequential_13_1/lstm_53_1/ExpandDims_1", "op": "ExpandDims", "input": ["StatefulPartitionedCall/sequential_13_1/lstm_53_1/zeros_1", "StatefulPartitionedCall/sequential_13_1/lstm_53_1/ExpandDims_1/dim"], "attr": {"T": {"type": "DT_FLOAT"}, "Tdim": {"type": "DT_INT32"}}}, {"name": "StatefulPartitionedCall/sequential_13_1/lstm_53_1/Fill", "op": "Fill", "input": ["StatefulPartitionedCall/sequential_13_1/lstm_53_1/Fill/dims", "StatefulPartitionedCall/sequential_13_1/lstm_53_1/strided_slice_3"], "attr": {"index_type": {"type": "DT_INT32"}, "T": {"type": "DT_INT32"}}}, {"name": "StatefulPartitionedCall/sequential_13_1/lstm_53_1/CudnnRNNV3", "op": "CudnnRNNV3", "input": ["StatefulPartitionedCall/sequential_13_1/lstm_52_1/CudnnRNNV3", "StatefulPartitionedCall/sequential_13_1/lstm_53_1/ExpandDims", "StatefulPartitionedCall/sequential_13_1/lstm_53_1/ExpandDims_1", "StatefulPartitionedCall/sequential_13_1/lstm_53_1/concat_1", "StatefulPartitionedCall/sequential_13_1/lstm_53_1/Fill"], "attr": {"rnn_mode": {"s": "bHN0bQ=="}, "is_training": {"b": true}, "seed2": {"i": "0"}, "dropout": {"f": 0.0}, "seed": {"i": "0"}, "direction": {"s": "dW5pZGlyZWN0aW9uYWw="}, "input_mode": {"s": "bGluZWFyX2lucHV0"}, "time_major": {"b": false}, "num_proj": {"i": "0"}, "T": {"type": "DT_FLOAT"}}}, {"name": "StatefulPartitionedCall/sequential_13_1/time_distributed_11_1/transpose", "op": "Transpose", "input": ["StatefulPartitionedCall/sequential_13_1/lstm_53_1/CudnnRNNV3", "StatefulPartitionedCall/sequential_13_1/time_distributed_11_1/transpose/perm"], "attr": {"T": {"type": "DT_FLOAT"}, "Tperm": {"type": "DT_INT32"}}}, {"name": "StatefulPartitionedCall/sequential_13_1/time_distributed_11_1/strided_slice_1", "op": "StridedSlice", "input": ["StatefulPartitionedCall/sequential_13_1/time_distributed_11_1/transpose", "StatefulPartitionedCall/sequential_13_1/time_distributed_11_1/strided_slice_1/stack", "StatefulPartitionedCall/sequential_13_1/time_distributed_11_1/strided_slice_1/stack_1", "StatefulPartitionedCall/sequential_13_1/time_distributed_11_1/strided_slice_1/stack_2"], "attr": {"end_mask": {"i": "0"}, "Index": {"type": "DT_INT32"}, "ellipsis_mask": {"i": "0"}, "begin_mask": {"i": "0"}, "shrink_axis_mask": {"i": "1"}, "T": {"type": "DT_FLOAT"}, "new_axis_mask": {"i": "0"}}}, {"name": "StatefulPartitionedCall/sequential_13_1/time_distributed_11_1/strided_slice_2", "op": "StridedSlice", "input": ["StatefulPartitionedCall/sequential_13_1/time_distributed_11_1/transpose", "StatefulPartitionedCall/sequential_13_1/time_distributed_11_1/strided_slice_2/stack", "StatefulPartitionedCall/sequential_13_1/time_distributed_11_1/strided_slice_2/stack_1", "StatefulPartitionedCall/sequential_13_1/time_distributed_11_1/strided_slice_2/stack_2"], "attr": {"begin_mask": {"i": "0"}, "ellipsis_mask": {"i": "0"}, "new_axis_mask": {"i": "0"}, "end_mask": {"i": "0"}, "Index": {"type": "DT_INT32"}, "T": {"type": "DT_FLOAT"}, "shrink_axis_mask": {"i": "1"}}}, {"name": "StatefulPartitionedCall/sequential_13_1/time_distributed_11_1/strided_slice_37", "op": "StridedSlice", "input": ["StatefulPartitionedCall/sequential_13_1/time_distributed_11_1/transpose", "StatefulPartitionedCall/sequential_13_1/time_distributed_11_1/strided_slice_37/stack", "StatefulPartitionedCall/sequential_13_1/time_distributed_11_1/strided_slice_37/stack_1", "StatefulPartitionedCall/sequential_13_1/time_distributed_11_1/strided_slice_37/stack_2"], "attr": {"T": {"type": "DT_FLOAT"}, "Index": {"type": "DT_INT32"}, "ellipsis_mask": {"i": "0"}, "end_mask": {"i": "0"}, "new_axis_mask": {"i": "0"}, "begin_mask": {"i": "0"}, "shrink_axis_mask": {"i": "1"}}}, {"name": "StatefulPartitionedCall/sequential_13_1/time_distributed_11_1/strided_slice_3", "op": "StridedSlice", "input": ["StatefulPartitionedCall/sequential_13_1/time_distributed_11_1/transpose", "StatefulPartitionedCall/sequential_13_1/time_distributed_11_1/strided_slice_3/stack", "StatefulPartitionedCall/sequential_13_1/time_distributed_11_1/strided_slice_3/stack_1", "StatefulPartitionedCall/sequential_13_1/time_distributed_11_1/strided_slice_3/stack_2"], "attr": {"end_mask": {"i": "0"}, "begin_mask": {"i": "0"}, "new_axis_mask": {"i": "0"}, "T": {"type": "DT_FLOAT"}, "ellipsis_mask": {"i": "0"}, "Index": {"type": "DT_INT32"}, "shrink_axis_mask": {"i": "1"}}}, {"name": "StatefulPartitionedCall/sequential_13_1/time_distributed_11_1/strided_slice_4", "op": "StridedSlice", "input": ["StatefulPartitionedCall/sequential_13_1/time_distributed_11_1/transpose", "StatefulPartitionedCall/sequential_13_1/time_distributed_11_1/strided_slice_4/stack", "StatefulPartitionedCall/sequential_13_1/time_distributed_11_1/strided_slice_4/stack_1", "StatefulPartitionedCall/sequential_13_1/time_distributed_11_1/strided_slice_4/stack_2"], "attr": {"shrink_axis_mask": {"i": "1"}, "begin_mask": {"i": "0"}, "Index": {"type": "DT_INT32"}, "end_mask": {"i": "0"}, "ellipsis_mask": {"i": "0"}, "new_axis_mask": {"i": "0"}, "T": {"type": "DT_FLOAT"}}}, {"name": "StatefulPartitionedCall/sequential_13_1/time_distributed_11_1/strided_slice_38", "op": "StridedSlice", "input": ["StatefulPartitionedCall/sequential_13_1/time_distributed_11_1/transpose", "StatefulPartitionedCall/sequential_13_1/time_distributed_11_1/strided_slice_38/stack", "StatefulPartitionedCall/sequential_13_1/time_distributed_11_1/strided_slice_38/stack_1", "StatefulPartitionedCall/sequential_13_1/time_distributed_11_1/strided_slice_38/stack_2"], "attr": {"T": {"type": "DT_FLOAT"}, "shrink_axis_mask": {"i": "1"}, "ellipsis_mask": {"i": "0"}, "end_mask": {"i": "0"}, "begin_mask": {"i": "0"}, "new_axis_mask": {"i": "0"}, "Index": {"type": "DT_INT32"}}}, {"name": "StatefulPartitionedCall/sequential_13_1/time_distributed_11_1/strided_slice_55", "op": "StridedSlice", "input": ["StatefulPartitionedCall/sequential_13_1/time_distributed_11_1/transpose", "StatefulPartitionedCall/sequential_13_1/time_distributed_11_1/strided_slice_55/stack", "StatefulPartitionedCall/sequential_13_1/time_distributed_11_1/strided_slice_55/stack_1", "StatefulPartitionedCall/sequential_13_1/time_distributed_11_1/strided_slice_55/stack_2"], "attr": {"begin_mask": {"i": "0"}, "new_axis_mask": {"i": "0"}, "T": {"type": "DT_FLOAT"}, "ellipsis_mask": {"i": "0"}, "end_mask": {"i": "0"}, "Index": {"type": "DT_INT32"}, "shrink_axis_mask": {"i": "1"}}}, {"name": "StatefulPartitionedCall/sequential_13_1/time_distributed_11_1/strided_slice_5", "op": "StridedSlice", "input": ["StatefulPartitionedCall/sequential_13_1/time_distributed_11_1/transpose", "StatefulPartitionedCall/sequential_13_1/time_distributed_11_1/strided_slice_5/stack", "StatefulPartitionedCall/sequential_13_1/time_distributed_11_1/strided_slice_5/stack_1", "StatefulPartitionedCall/sequential_13_1/time_distributed_11_1/strided_slice_5/stack_2"], "attr": {"begin_mask": {"i": "0"}, "new_axis_mask": {"i": "0"}, "end_mask": {"i": "0"}, "T": {"type": "DT_FLOAT"}, "ellipsis_mask": {"i": "0"}, "shrink_axis_mask": {"i": "1"}, "Index": {"type": "DT_INT32"}}}, {"name": "StatefulPartitionedCall/sequential_13_1/time_distributed_11_1/strided_slice_6", "op": "StridedSlice", "input": ["StatefulPartitionedCall/sequential_13_1/time_distributed_11_1/transpose", "StatefulPartitionedCall/sequential_13_1/time_distributed_11_1/strided_slice_6/stack", "StatefulPartitionedCall/sequential_13_1/time_distributed_11_1/strided_slice_6/stack_1", "StatefulPartitionedCall/sequential_13_1/time_distributed_11_1/strided_slice_6/stack_2"], "attr": {"shrink_axis_mask": {"i": "1"}, "new_axis_mask": {"i": "0"}, "Index": {"type": "DT_INT32"}, "T": {"type": "DT_FLOAT"}, "begin_mask": {"i": "0"}, "ellipsis_mask": {"i": "0"}, "end_mask": {"i": "0"}}}, {"name": "StatefulPartitionedCall/sequential_13_1/time_distributed_11_1/strided_slice_39", "op": "StridedSlice", "input": ["StatefulPartitionedCall/sequential_13_1/time_distributed_11_1/transpose", "StatefulPartitionedCall/sequential_13_1/time_distributed_11_1/strided_slice_39/stack", "StatefulPartitionedCall/sequential_13_1/time_distributed_11_1/strided_slice_39/stack_1", "StatefulPartitionedCall/sequential_13_1/time_distributed_11_1/strided_slice_39/stack_2"], "attr": {"shrink_axis_mask": {"i": "1"}, "Index": {"type": "DT_INT32"}, "end_mask": {"i": "0"}, "T": {"type": "DT_FLOAT"}, "begin_mask": {"i": "0"}, "new_axis_mask": {"i": "0"}, "ellipsis_mask": {"i": "0"}}}, {"name": "StatefulPartitionedCall/sequential_13_1/time_distributed_11_1/strided_slice_7", "op": "StridedSlice", "input": ["StatefulPartitionedCall/sequential_13_1/time_distributed_11_1/transpose", "StatefulPartitionedCall/sequential_13_1/time_distributed_11_1/strided_slice_7/stack", "StatefulPartitionedCall/sequential_13_1/time_distributed_11_1/strided_slice_7/stack_1", "StatefulPartitionedCall/sequential_13_1/time_distributed_11_1/strided_slice_7/stack_2"], "attr": {"end_mask": {"i": "0"}, "new_axis_mask": {"i": "0"}, "Index": {"type": "DT_INT32"}, "T": {"type": "DT_FLOAT"}, "ellipsis_mask": {"i": "0"}, "begin_mask": {"i": "0"}, "shrink_axis_mask": {"i": "1"}}}, {"name": "StatefulPartitionedCall/sequential_13_1/time_distributed_11_1/strided_slice_8", "op": "StridedSlice", "input": ["StatefulPartitionedCall/sequential_13_1/time_distributed_11_1/transpose", "StatefulPartitionedCall/sequential_13_1/time_distributed_11_1/strided_slice_8/stack", "StatefulPartitionedCall/sequential_13_1/time_distributed_11_1/strided_slice_8/stack_1", "StatefulPartitionedCall/sequential_13_1/time_distributed_11_1/strided_slice_8/stack_2"], "attr": {"end_mask": {"i": "0"}, "ellipsis_mask": {"i": "0"}, "shrink_axis_mask": {"i": "1"}, "new_axis_mask": {"i": "0"}, "Index": {"type": "DT_INT32"}, "begin_mask": {"i": "0"}, "T": {"type": "DT_FLOAT"}}}, {"name": "StatefulPartitionedCall/sequential_13_1/time_distributed_11_1/strided_slice_40", "op": "StridedSlice", "input": ["StatefulPartitionedCall/sequential_13_1/time_distributed_11_1/transpose", "StatefulPartitionedCall/sequential_13_1/time_distributed_11_1/strided_slice_40/stack", "StatefulPartitionedCall/sequential_13_1/time_distributed_11_1/strided_slice_40/stack_1", "StatefulPartitionedCall/sequential_13_1/time_distributed_11_1/strided_slice_40/stack_2"], "attr": {"T": {"type": "DT_FLOAT"}, "new_axis_mask": {"i": "0"}, "shrink_axis_mask": {"i": "1"}, "ellipsis_mask": {"i": "0"}, "end_mask": {"i": "0"}, "begin_mask": {"i": "0"}, "Index": {"type": "DT_INT32"}}}, {"name": "StatefulPartitionedCall/sequential_13_1/time_distributed_11_1/strided_slice_56", "op": "StridedSlice", "input": ["StatefulPartitionedCall/sequential_13_1/time_distributed_11_1/transpose", "StatefulPartitionedCall/sequential_13_1/time_distributed_11_1/strided_slice_56/stack", "StatefulPartitionedCall/sequential_13_1/time_distributed_11_1/strided_slice_56/stack_1", "StatefulPartitionedCall/sequential_13_1/time_distributed_11_1/strided_slice_56/stack_2"], "attr": {"shrink_axis_mask": {"i": "1"}, "new_axis_mask": {"i": "0"}, "ellipsis_mask": {"i": "0"}, "Index": {"type": "DT_INT32"}, "T": {"type": "DT_FLOAT"}, "begin_mask": {"i": "0"}, "end_mask": {"i": "0"}}}, {"name": "StatefulPartitionedCall/sequential_13_1/time_distributed_11_1/strided_slice_9", "op": "StridedSlice", "input": ["StatefulPartitionedCall/sequential_13_1/time_distributed_11_1/transpose", "StatefulPartitionedCall/sequential_13_1/time_distributed_11_1/strided_slice_9/stack", "StatefulPartitionedCall/sequential_13_1/time_distributed_11_1/strided_slice_9/stack_1", "StatefulPartitionedCall/sequential_13_1/time_distributed_11_1/strided_slice_9/stack_2"], "attr": {"begin_mask": {"i": "0"}, "shrink_axis_mask": {"i": "1"}, "new_axis_mask": {"i": "0"}, "Index": {"type": "DT_INT32"}, "T": {"type": "DT_FLOAT"}, "end_mask": {"i": "0"}, "ellipsis_mask": {"i": "0"}}}, {"name": "StatefulPartitionedCall/sequential_13_1/time_distributed_11_1/strided_slice_10", "op": "StridedSlice", "input": ["StatefulPartitionedCall/sequential_13_1/time_distributed_11_1/transpose", "StatefulPartitionedCall/sequential_13_1/time_distributed_11_1/strided_slice_10/stack", "StatefulPartitionedCall/sequential_13_1/time_distributed_11_1/strided_slice_10/stack_1", "StatefulPartitionedCall/sequential_13_1/time_distributed_11_1/strided_slice_10/stack_2"], "attr": {"shrink_axis_mask": {"i": "1"}, "T": {"type": "DT_FLOAT"}, "Index": {"type": "DT_INT32"}, "begin_mask": {"i": "0"}, "new_axis_mask": {"i": "0"}, "end_mask": {"i": "0"}, "ellipsis_mask": {"i": "0"}}}, {"name": "StatefulPartitionedCall/sequential_13_1/time_distributed_11_1/strided_slice_41", "op": "StridedSlice", "input": ["StatefulPartitionedCall/sequential_13_1/time_distributed_11_1/transpose", "StatefulPartitionedCall/sequential_13_1/time_distributed_11_1/strided_slice_41/stack", "StatefulPartitionedCall/sequential_13_1/time_distributed_11_1/strided_slice_41/stack_1", "StatefulPartitionedCall/sequential_13_1/time_distributed_11_1/strided_slice_41/stack_2"], "attr": {"T": {"type": "DT_FLOAT"}, "shrink_axis_mask": {"i": "1"}, "Index": {"type": "DT_INT32"}, "end_mask": {"i": "0"}, "new_axis_mask": {"i": "0"}, "begin_mask": {"i": "0"}, "ellipsis_mask": {"i": "0"}}}, {"name": "StatefulPartitionedCall/sequential_13_1/time_distributed_11_1/strided_slice_11", "op": "StridedSlice", "input": ["StatefulPartitionedCall/sequential_13_1/time_distributed_11_1/transpose", "StatefulPartitionedCall/sequential_13_1/time_distributed_11_1/strided_slice_11/stack", "StatefulPartitionedCall/sequential_13_1/time_distributed_11_1/strided_slice_11/stack_1", "StatefulPartitionedCall/sequential_13_1/time_distributed_11_1/strided_slice_11/stack_2"], "attr": {"begin_mask": {"i": "0"}, "T": {"type": "DT_FLOAT"}, "new_axis_mask": {"i": "0"}, "Index": {"type": "DT_INT32"}, "shrink_axis_mask": {"i": "1"}, "end_mask": {"i": "0"}, "ellipsis_mask": {"i": "0"}}}, {"name": "StatefulPartitionedCall/sequential_13_1/time_distributed_11_1/strided_slice_12", "op": "StridedSlice", "input": ["StatefulPartitionedCall/sequential_13_1/time_distributed_11_1/transpose", "StatefulPartitionedCall/sequential_13_1/time_distributed_11_1/strided_slice_12/stack", "StatefulPartitionedCall/sequential_13_1/time_distributed_11_1/strided_slice_12/stack_1", "StatefulPartitionedCall/sequential_13_1/time_distributed_11_1/strided_slice_12/stack_2"], "attr": {"shrink_axis_mask": {"i": "1"}, "T": {"type": "DT_FLOAT"}, "Index": {"type": "DT_INT32"}, "begin_mask": {"i": "0"}, "ellipsis_mask": {"i": "0"}, "new_axis_mask": {"i": "0"}, "end_mask": {"i": "0"}}}, {"name": "StatefulPartitionedCall/sequential_13_1/time_distributed_11_1/strided_slice_42", "op": "StridedSlice", "input": ["StatefulPartitionedCall/sequential_13_1/time_distributed_11_1/transpose", "StatefulPartitionedCall/sequential_13_1/time_distributed_11_1/strided_slice_42/stack", "StatefulPartitionedCall/sequential_13_1/time_distributed_11_1/strided_slice_42/stack_1", "StatefulPartitionedCall/sequential_13_1/time_distributed_11_1/strided_slice_42/stack_2"], "attr": {"end_mask": {"i": "0"}, "begin_mask": {"i": "0"}, "new_axis_mask": {"i": "0"}, "Index": {"type": "DT_INT32"}, "shrink_axis_mask": {"i": "1"}, "T": {"type": "DT_FLOAT"}, "ellipsis_mask": {"i": "0"}}}, {"name": "StatefulPartitionedCall/sequential_13_1/time_distributed_11_1/strided_slice_57", "op": "StridedSlice", "input": ["StatefulPartitionedCall/sequential_13_1/time_distributed_11_1/transpose", "StatefulPartitionedCall/sequential_13_1/time_distributed_11_1/strided_slice_57/stack", "StatefulPartitionedCall/sequential_13_1/time_distributed_11_1/strided_slice_57/stack_1", "StatefulPartitionedCall/sequential_13_1/time_distributed_11_1/strided_slice_57/stack_2"], "attr": {"shrink_axis_mask": {"i": "1"}, "new_axis_mask": {"i": "0"}, "begin_mask": {"i": "0"}, "T": {"type": "DT_FLOAT"}, "end_mask": {"i": "0"}, "Index": {"type": "DT_INT32"}, "ellipsis_mask": {"i": "0"}}}, {"name": "StatefulPartitionedCall/sequential_13_1/time_distributed_11_1/strided_slice_13", "op": "StridedSlice", "input": ["StatefulPartitionedCall/sequential_13_1/time_distributed_11_1/transpose", "StatefulPartitionedCall/sequential_13_1/time_distributed_11_1/strided_slice_13/stack", "StatefulPartitionedCall/sequential_13_1/time_distributed_11_1/strided_slice_13/stack_1", "StatefulPartitionedCall/sequential_13_1/time_distributed_11_1/strided_slice_13/stack_2"], "attr": {"ellipsis_mask": {"i": "0"}, "shrink_axis_mask": {"i": "1"}, "T": {"type": "DT_FLOAT"}, "begin_mask": {"i": "0"}, "new_axis_mask": {"i": "0"}, "Index": {"type": "DT_INT32"}, "end_mask": {"i": "0"}}}, {"name": "StatefulPartitionedCall/sequential_13_1/time_distributed_11_1/strided_slice_14", "op": "StridedSlice", "input": ["StatefulPartitionedCall/sequential_13_1/time_distributed_11_1/transpose", "StatefulPartitionedCall/sequential_13_1/time_distributed_11_1/strided_slice_14/stack", "StatefulPartitionedCall/sequential_13_1/time_distributed_11_1/strided_slice_14/stack_1", "StatefulPartitionedCall/sequential_13_1/time_distributed_11_1/strided_slice_14/stack_2"], "attr": {"shrink_axis_mask": {"i": "1"}, "begin_mask": {"i": "0"}, "new_axis_mask": {"i": "0"}, "T": {"type": "DT_FLOAT"}, "Index": {"type": "DT_INT32"}, "ellipsis_mask": {"i": "0"}, "end_mask": {"i": "0"}}}, {"name": "StatefulPartitionedCall/sequential_13_1/time_distributed_11_1/strided_slice_43", "op": "StridedSlice", "input": ["StatefulPartitionedCall/sequential_13_1/time_distributed_11_1/transpose", "StatefulPartitionedCall/sequential_13_1/time_distributed_11_1/strided_slice_43/stack", "StatefulPartitionedCall/sequential_13_1/time_distributed_11_1/strided_slice_43/stack_1", "StatefulPartitionedCall/sequential_13_1/time_distributed_11_1/strided_slice_43/stack_2"], "attr": {"T": {"type": "DT_FLOAT"}, "Index": {"type": "DT_INT32"}, "ellipsis_mask": {"i": "0"}, "end_mask": {"i": "0"}, "begin_mask": {"i": "0"}, "shrink_axis_mask": {"i": "1"}, "new_axis_mask": {"i": "0"}}}, {"name": "StatefulPartitionedCall/sequential_13_1/time_distributed_11_1/strided_slice_15", "op": "StridedSlice", "input": ["StatefulPartitionedCall/sequential_13_1/time_distributed_11_1/transpose", "StatefulPartitionedCall/sequential_13_1/time_distributed_11_1/strided_slice_15/stack", "StatefulPartitionedCall/sequential_13_1/time_distributed_11_1/strided_slice_15/stack_1", "StatefulPartitionedCall/sequential_13_1/time_distributed_11_1/strided_slice_15/stack_2"], "attr": {"shrink_axis_mask": {"i": "1"}, "new_axis_mask": {"i": "0"}, "T": {…
all/sequential_13_1/time_distributed_11_1/strided_slice_4/stack", "shape": [1], "dtype": "int32"}, {"name": "StatefulPartitionedCall/sequential_13_1/time_distributed_11_1/strided_slice_4/stack_1", "shape": [1], "dtype": "int32"}, {"name": "StatefulPartitionedCall/sequential_13_1/time_distributed_11_1/strided_slice_4/stack_2", "shape": [1], "dtype": "int32"}, {"name": "StatefulPartitionedCall/sequential_13_1/time_distributed_11_1/Cast_3/ReadVariableOp", "shape": [64, 64], "dtype": "float32"}, {"name": "StatefulPartitionedCall/sequential_13_1/time_distributed_11_1/BiasAdd_3/ReadVariableOp", "shape": [64], "dtype": "float32"}, {"name": "StatefulPartitionedCall/sequential_13_1/time_distributed_11_1/strided_slice_5/stack", "shape": [1], "dtype": "int32"}, {"name": "StatefulPartitionedCall/sequential_13_1/time_distributed_11_1/strided_slice_5/stack_1", "shape": [1], "dtype": "int32"}, {"name": "StatefulPartitionedCall/sequential_13_1/time_distributed_11_1/strided_slice_5/stack_2", "shape": [1], "dtype": "int32"}, {"name": "StatefulPartitionedCall/sequential_13_1/time_distributed_11_1/Cast_4/ReadVariableOp", "shape": [64, 64], "dtype": "float32"}, {"name": "StatefulPartitionedCall/sequential_13_1/time_distributed_11_1/BiasAdd_4/ReadVariableOp", "shape": [64], "dtype": "float32"}, {"name": "StatefulPartitionedCall/sequential_13_1/time_distributed_11_1/strided_slice_6/stack", "shape": [1], "dtype": "int32"}, {"name": "StatefulPartitionedCall/sequential_13_1/time_distributed_11_1/strided_slice_6/stack_1", "shape": [1], "dtype": "int32"}, {"name": "StatefulPartitionedCall/sequential_13_1/time_distributed_11_1/strided_slice_6/stack_2", "shape": [1], "dtype": "int32"}, {"name": "StatefulPartitionedCall/sequential_13_1/time_distributed_11_1/Cast_5/ReadVariableOp", "shape": [64, 64], "dtype": "float32"}, {"name": "StatefulPartitionedCall/sequential_13_1/time_distributed_11_1/BiasAdd_5/ReadVariableOp", "shape": [64], "dtype": "float32"}, {"name": "StatefulPartitionedCall/sequential_13_1/time_distributed_11_1/strided_slice_7/stack", "shape": [1], "dtype": "int32"}, {"name": "StatefulPartitionedCall/sequential_13_1/time_distributed_11_1/strided_slice_7/stack_1", "shape": [1], "dtype": "int32"}, {"name": "StatefulPartitionedCall/sequential_13_1/time_distributed_11_1/strided_slice_7/stack_2", "shape": [1], "dtype": "int32"}, {"name": "StatefulPartitionedCall/sequential_13_1/time_distributed_11_1/Cast_6/ReadVariableOp", "shape": [64, 64], "dtype": "float32"}, {"name": "StatefulPartitionedCall/sequential_13_1/time_distributed_11_1/BiasAdd_6/ReadVariableOp", "shape": [64], "dtype": "float32"}, {"name": "StatefulPartitionedCall/sequential_13_1/time_distributed_11_1/strided_slice_8/stack", "shape": [1], "dtype": "int32"}, {"name": "StatefulPartitionedCall/sequential_13_1/time_distributed_11_1/strided_slice_8/stack_1", "shape": [1], "dtype": "int32"}, {"name": "StatefulPartitionedCall/sequential_13_1/time_distributed_11_1/strided_slice_8/stack_2", "shape": [1], "dtype": "int32"}, {"name": "StatefulPartitionedCall/sequential_13_1/time_distributed_11_1/Cast_7/ReadVariableOp", "shape": [64, 64], "dtype": "float32"}, {"name": "StatefulPartitionedCall/sequential_13_1/time_distributed_11_1/BiasAdd_7/ReadVariableOp", "shape": [64], "dtype": "float32"}, {"name": "StatefulPartitionedCall/sequential_13_1/time_distributed_11_1/strided_slice_9/stack", "shape": [1], "dtype": "int32"}, {"name": "StatefulPartitionedCall/sequential_13_1/time_distributed_11_1/strided_slice_9/stack_1", "shape": [1], "dtype": "int32"}, {"name": "StatefulPartitionedCall/sequential_13_1/time_distributed_11_1/strided_slice_9/stack_2", "shape": [1], "dtype": "int32"}, {"name": "StatefulPartitionedCall/sequential_13_1/time_distributed_11_1/Cast_8/ReadVariableOp", "shape": [64, 64], "dtype": "float32"}, {"name": "StatefulPartitionedCall/sequential_13_1/time_distributed_11_1/BiasAdd_8/ReadVariableOp", "shape": [64], "dtype": "float32"}, {"name": "StatefulPartitionedCall/sequential_13_1/time_distributed_11_1/strided_slice_10/stack", "shape": [1], "dtype": "int32"}, {"name": "StatefulPartitionedCall/sequential_13_1/time_distributed_11_1/strided_slice_10/stack_1", "shape": [1], "dtype": "int32"}, {"name": "StatefulPartitionedCall/sequential_13_1/time_distributed_11_1/strided_slice_10/stack_2", "shape": [1], "dtype": "int32"}, {"name": "StatefulPartitionedCall/sequential_13_1/time_distributed_11_1/Cast_9/ReadVariableOp", "shape": [64, 64], "dtype": "float32"}, {"name": "StatefulPartitionedCall/sequential_13_1/time_distributed_11_1/BiasAdd_9/ReadVariableOp", "shape": [64], "dtype": "float32"}, {"name": "StatefulPartitionedCall/sequential_13_1/time_distributed_11_1/strided_slice_11/stack", "shape": [1], "dtype": "int32"}, {"name": "StatefulPartitionedCall/sequential_13_1/time_distributed_11_1/strided_slice_11/stack_1", "shape": [1], "dtype": "int32"}, {"name": "StatefulPartitionedCall/sequential_13_1/time_distributed_11_1/strided_slice_11/stack_2", "shape": [1], "dtype": "int32"}, {"name": "StatefulPartitionedCall/sequential_13_1/time_distributed_11_1/Cast_10/ReadVariableOp", "shape": [64, 64], "dtype": "float32"}, {"name": "StatefulPartitionedCall/sequential_13_1/time_distributed_11_1/BiasAdd_10/ReadVariableOp", "shape": [64], "dtype": "float32"}, {"name": "StatefulPartitionedCall/sequential_13_1/time_distributed_11_1/strided_slice_12/stack", "shape": [1], "dtype": "int32"}, {"name": "StatefulPartitionedCall/sequential_13_1/time_distributed_11_1/strided_slice_12/stack_1", "shape": [1], "dtype": "int32"}, {"name": "StatefulPartitionedCall/sequential_13_1/time_distributed_11_1/strided_slice_12/stack_2", "shape": [1], "dtype": "int32"}, {"name": "StatefulPartitionedCall/sequential_13_1/time_distributed_11_1/Cast_11/ReadVariableOp", "shape": [64, 64], "dtype": "float32"}, {"name": "StatefulPartitionedCall/sequential_13_1/time_distributed_11_1/BiasAdd_11/ReadVariableOp", "shape": [64], "dtype": "float32"}, {"name": "StatefulPartitionedCall/sequential_13_1/time_distributed_11_1/strided_slice_13/stack", "shape": [1], "dtype": "int32"}, {"name": "StatefulPartitionedCall/sequential_13_1/time_distributed_11_1/strided_slice_13/stack_1", "shape": [1], "dtype": "int32"}, {"name": "StatefulPartitionedCall/sequential_13_1/time_distributed_11_1/strided_slice_13/stack_2", "shape": [1], "dtype": "int32"}, {"name": "StatefulPartitionedCall/sequential_13_1/time_distributed_11_1/Cast_12/ReadVariableOp", "shape": [64, 64], "dtype": "float32"}, {"name": "StatefulPartitionedCall/sequential_13_1/time_distributed_11_1/BiasAdd_12/ReadVariableOp", "shape": [64], "dtype": "float32"}, {"name": "StatefulPartitionedCall/sequential_13_1/time_distributed_11_1/strided_slice_14/stack", "shape": [1], "dtype": "int32"}, {"name": "StatefulPartitionedCall/sequential_13_1/time_distributed_11_1/strided_slice_14/stack_1", "shape": [1], "dtype": "int32"}, {"name": "StatefulPartitionedCall/sequential_13_1/time_distributed_11_1/strided_slice_14/stack_2", "shape": [1], "dtype": "int32"}, {"name": "StatefulPartitionedCall/sequential_13_1/time_distributed_11_1/Cast_13/ReadVariableOp", "shape": [64, 64], "dtype": "float32"}, {"name": "StatefulPartitionedCall/sequential_13_1/time_distributed_11_1/BiasAdd_13/ReadVariableOp", "shape": [64], "dtype": "float32"}, {"name": "StatefulPartitionedCall/sequential_13_1/time_distributed_11_1/strided_slice_15/stack", "shape": [1], "dtype": "int32"}, {"name": "StatefulPartitionedCall/sequential_13_1/time_distributed_11_1/strided_slice_15/stack_1", "shape": [1], "dtype": "int32"}, {"name": "StatefulPartitionedCall/sequential_13_1/time_distributed_11_1/strided_slice_15/stack_2", "shape": [1], "dtype": "int32"}, {"name": "StatefulPartitionedCall/sequential_13_1/time_distributed_11_1/Cast_14/ReadVariableOp", "shape": [64, 64], "dtype": "float32"}, {"name": "StatefulPartitionedCall/sequential_13_1/time_distributed_11_1/BiasAdd_14/ReadVariableOp", "shape": [64], "dtype": "float32"}, {"name": "StatefulPartitionedCall/sequential_13_1/time_distributed_11_1/strided_slice_16/stack", "shape": [1], "dtype": "int32"}, {"name": "StatefulPartitionedCall/sequential_13_1/time_distributed_11_1/strided_slice_16/stack_1", "shape": [1], "dtype": "int32"}, {"name": "StatefulPartitionedCall/sequential_13_1/time_distributed_11_1/strided_slice_16/stack_2", "shape": [1], "dtype": "int32"}, {"name": "StatefulPartitionedCall/sequential_13_1/time_distributed_11_1/Cast_15/ReadVariableOp", "shape": [64, 64], "dtype": "float32"}, {"name": "StatefulPartitionedCall/sequential_13_1/time_distributed_11_1/BiasAdd_15/ReadVariableOp", "shape": [64], "dtype": "float32"}, {"name": "StatefulPartitionedCall/sequential_13_1/time_distributed_11_1/strided_slice_17/stack", "shape": [1], "dtype": "int32"}, {"name": "StatefulPartitionedCall/sequential_13_1/time_distributed_11_1/strided_slice_17/stack_1", "shape": [1], "dtype": "int32"}, {"name": "StatefulPartitionedCall/sequential_13_1/time_distributed_11_1/strided_slice_17/stack_2", "shape": [1], "dtype": "int32"}, {"name": "StatefulPartitionedCall/sequential_13_1/time_distributed_11_1/Cast_16/ReadVariableOp", "shape": [64, 64], "dtype": "float32"}, {"name": "StatefulPartitionedCall/sequential_13_1/time_distributed_11_1/BiasAdd_16/ReadVariableOp", "shape": [64], "dtype": "float32"}, {"name": "StatefulPartitionedCall/sequential_13_1/time_distributed_11_1/strided_slice_18/stack", "shape": [1], "dtype": "int32"}, {"name": "StatefulPartitionedCall/sequential_13_1/time_distributed_11_1/strided_slice_18/stack_1", "shape": [1], "dtype": "int32"}, {"name": "StatefulPartitionedCall/sequential_13_1/time_distributed_11_1/strided_slice_18/stack_2", "shape": [1], "dtype": "int32"}, {"name": "StatefulPartitionedCall/sequential_13_1/time_distributed_11_1/Cast_17/ReadVariableOp", "shape": [64, 64], "dtype": "float32"}, {"name": "StatefulPartitionedCall/sequential_13_1/time_distributed_11_1/BiasAdd_17/ReadVariableOp", "shape": [64], "dtype": "float32"}, {"name": "StatefulPartitionedCall/sequential_13_1/time_distributed_11_1/strided_slice_19/stack", "shape": [1], "dtype": "int32"}, {"name": "StatefulPartitionedCall/sequential_13_1/time_distributed_11_1/strided_slice_19/stack_1", "shape": [1], "dtype": "int32"}, {"name": "StatefulPartitionedCall/sequential_13_1/time_distributed_11_1/strided_slice_19/stack_2", "shape": [1], "dtype": "int32"}, {"name": "StatefulPartitionedCall/sequential_13_1/time_distributed_11_1/Cast_18/ReadVariableOp", "shape": [64, 64], "dtype": "float32"}, {"name": "StatefulPartitionedCall/sequential_13_1/time_distributed_11_1/BiasAdd_18/ReadVariableOp", "shape": [64], "dtype": "float32"}, {"name": "StatefulPartitionedCall/sequential_13_1/time_distributed_11_1/strided_slice_20/stack", "shape": [1], "dtype": "int32"}, {"name": "StatefulPartitionedCall/sequential_13_1/time_distributed_11_1/strided_slice_20/stack_1", "shape": [1], "dtype": "int32"}, {"name": "StatefulPartitionedCall/sequential_13_1/time_distributed_11_1/strided_slice_20/stack_2", "shape": [1], "dtype": "int32"}, {"name": "StatefulPartitionedCall/sequential_13_1/time_distributed_11_1/Cast_19/ReadVariableOp", "shape": [64, 64], "dtype": "float32"}, {"name": "StatefulPartitionedCall/sequential_13_1/time_distributed_11_1/BiasAdd_19/ReadVariableOp", "shape": [64], "dtype": "float32"}, {"name": "StatefulPartitionedCall/sequential_13_1/time_distributed_11_1/strided_slice_21/stack", "shape": [1], "dtype": "int32"}, {"name": "StatefulPartitionedCall/sequential_13_1/time_distributed_11_1/strided_slice_21/stack_1", "shape": [1], "dtype": "int32"}, {"name": "StatefulPartitionedCall/sequential_13_1/time_distributed_11_1/strided_slice_21/stack_2", "shape": [1], "dtype": "int32"}, {"name": "StatefulPartitionedCall/sequential_13_1/time_distributed_11_1/Cast_20/ReadVariableOp", "shape": [64, 64], "dtype": "float32"}, {"name": "StatefulPartitionedCall/sequential_13_1/time_distributed_11_1/BiasAdd_20/ReadVariableOp", "shape": [64], "dtype": "float32"}, {"name": "StatefulPartitionedCall/sequential_13_1/time_distributed_11_1/strided_slice_22/stack", "shape": [1], "dtype": "int32"}, {"name": "StatefulPartitionedCall/sequential_13_1/time_distributed_11_1/strided_slice_22/stack_1", "shape": [1], "dtype": "int32"}, {"name": "StatefulPartitionedCall/sequential_13_1/time_distributed_11_1/strided_slice_22/stack_2", "shape": [1], "dtype": "int32"}, {"name": "StatefulPartitionedCall/sequential_13_1/time_distributed_11_1/Cast_21/ReadVariableOp", "shape": [64, 64], "dtype": "float32"}, {"name": "StatefulPartitionedCall/sequential_13_1/time_distributed_11_1/BiasAdd_21/ReadVariableOp", "shape": [64], "dtype": "float32"}, {"name": "StatefulPartitionedCall/sequential_13_1/time_distributed_11_1/strided_slice_23/stack", "shape": [1], "dtype": "int32"}, {"name": "StatefulPartitionedCall/sequential_13_1/time_distributed_11_1/strided_slice_23/stack_1", "shape": [1], "dtype": "int32"}, {"name": "StatefulPartitionedCall/sequential_13_1/time_distributed_11_1/strided_slice_23/stack_2", "shape": [1], "dtype": "int32"}, {"name": "StatefulPartitionedCall/sequential_13_1/time_distributed_11_1/Cast_22/ReadVariableOp", "shape": [64, 64], "dtype": "float32"}, {"name": "StatefulPartitionedCall/sequential_13_1/time_distributed_11_1/BiasAdd_22/ReadVariableOp", "shape": [64], "dtype": "float32"}, {"name": "StatefulPartitionedCall/sequential_13_1/time_distributed_11_1/strided_slice_24/stack", "shape": [1], "dtype": "int32"}, {"name": "StatefulPartitionedCall/sequential_13_1/time_distributed_11_1/strided_slice_24/stack_1", "shape": [1], "dtype": "int32"}, {"name": "StatefulPartitionedCall/sequential_13_1/time_distributed_11_1/strided_slice_24/stack_2", "shape": [1], "dtype": "int32"}, {"name": "StatefulPartitionedCall/sequential_13_1/time_distributed_11_1/Cast_23/ReadVariableOp", "shape": [64, 64], "dtype": "float32"}, {"name": "StatefulPartitionedCall/sequential_13_1/time_distributed_11_1/BiasAdd_23/ReadVariableOp", "shape": [64], "dtype": "float32"}, {"name": "StatefulPartitionedCall/sequential_13_1/time_distributed_11_1/strided_slice_25/stack", "shape": [1], "dtype": "int32"}, {"name": "StatefulPartitionedCall/sequential_13_1/time_distributed_11_1/strided_slice_25/stack_1", "shape": [1], "dtype": "int32"}, {"name": "StatefulPartitionedCall/sequential_13_1/time_distributed_11_1/strided_slice_25/stack_2", "shape": [1], "dtype": "int32"}, {"name": "StatefulPartitionedCall/sequential_13_1/time_distributed_11_1/Cast_24/ReadVariableOp", "shape": [64, 64], "dtype": "float32"}, {"name": "StatefulPartitionedCall/sequential_13_1/time_distributed_11_1/BiasAdd_24/ReadVariableOp", "shape": [64], "dtype": "float32"}, {"name": "StatefulPartitionedCall/sequential_13_1/time_distributed_11_1/strided_slice_26/stack", "shape": [1], "dtype": "int32"}, {"name": "StatefulPartitionedCall/sequential_13_1/time_distributed_11_1/strided_slice_26/stack_1", "shape": [1], "dtype": "int32"}, {"name": "StatefulPartitionedCall/sequential_13_1/time_distributed_11_1/strided_slice_26/stack_2", "shape": [1], "dtype": "int32"}, {"name": "StatefulPartitionedCall/sequential_13_1/time_distributed_11_1/Cast_25/ReadVariableOp", "shape": [64, 64], "dtype": "float32"}, {"name": "StatefulPartitionedCall/sequential_13_1/time_distributed_11_1/BiasAdd_25/ReadVariableOp", "shape": [64], "dtype": "float32"}, {"name": "StatefulPartitionedCall/sequential_13_1/time_distributed_11_1/strided_slice_27/stack", "shape": [1], "dtype": "int32"}, {"name": "StatefulPartitionedCall/sequential_13_1/time_distributed_11_1/strided_slice_27/stack_1", "shape": [1], "dtype": "int32"}, {"name": "StatefulPartitionedCall/sequential_13_1/time_distributed_11_1/strided_slice_27/stack_2", "shape": [1], "dtype": "int32"}, {"name": "StatefulPartitionedCall/sequential_13_1/time_distributed_11_1/Cast_26/ReadVariableOp", "shape": [64, 64], "dtype": "float32"}, {"name": "StatefulPartitionedCall/sequential_13_1/time_distributed_11_1/BiasAdd_26/ReadVariableOp", "shape": [64], "dtype": "float32"}, {"name": "StatefulPartitionedCall/sequential_13_1/time_distributed_11_1/strided_slice_28/stack", "shape": [1], "dtype": "int32"}, {"name": "StatefulPartitionedCall/sequential_13_1/time_distributed_11_1/strided_slice_28/stack_1", "shape": [1], "dtype": "int32"}, {"name": "StatefulPartitionedCall/sequential_13_1/time_distributed_11_1/strided_slice_28/stack_2", "shape": [1], "dtype": "int32"}, {"name": "StatefulPartitionedCall/sequential_13_1/time_distributed_11_1/Cast_27/ReadVariableOp", "shape": [64, 64], "dtype": "float32"}, {"name": "StatefulPartitionedCall/sequential_13_1/time_distributed_11_1/BiasAdd_27/ReadVariableOp", "shape": [64], "dtype": "float32"}, {"name": "StatefulPartitionedCall/sequential_13_1/time_distributed_11_1/strided_slice_29/stack", "shape": [1], "dtype": "int32"}, {"name": "StatefulPartitionedCall/sequential_13_1/time_distributed_11_1/strided_slice_29/stack_1", "shape": [1], "dtype": "int32"}, {"name": "StatefulPartitionedCall/sequential_13_1/time_distributed_11_1/strided_slice_29/stack_2", "shape": [1], "dtype": "int32"}, {"name": "StatefulPartitionedCall/sequential_13_1/time_distributed_11_1/Cast_28/ReadVariableOp", "shape": [64, 64], "dtype": "float32"}, {"name": "StatefulPartitionedCall/sequential_13_1/time_distributed_11_1/BiasAdd_28/ReadVariableOp", "shape": [64], "dtype": "float32"}, {"name": "StatefulPartitionedCall/sequential_13_1/time_distributed_11_1/strided_slice_30/stack", "shape": [1], "dtype": "int32"}, {"name": "StatefulPartitionedCall/sequential_13_1/time_distributed_11_1/strided_slice_30/stack_1", "shape": [1], "dtype": "int32"}, {"name": "StatefulPartitionedCall/sequential_13_1/time_distributed_11_1/strided_slice_30/stack_2", "shape": [1], "dtype": "int32"}, {"name": "StatefulPartitionedCall/sequential_13_1/time_distributed_11_1/Cast_29/ReadVariableOp", "shape": [64, 64], "dtype": "float32"}, {"name": "StatefulPartitionedCall/sequential_13_1/time_distributed_11_1/BiasAdd_29/ReadVariableOp", "shape": [64], "dtype": "float32"}, {"name": "StatefulPartitionedCall/sequential_13_1/time_distributed_11_1/strided_slice_31/stack", "shape": [1], "dtype": "int32"}, {"name": "StatefulPartitionedCall/sequential_13_1/time_distributed_11_1/strided_slice_31/stack_1", "shape": [1], "dtype": "int32"}, {"name": "StatefulPartitionedCall/sequential_13_1/time_distributed_11_1/strided_slice_31/stack_2", "shape": [1], "dtype": "int32"}, {"name": "StatefulPartitionedCall/sequential_13_1/time_distributed_11_1/Cast_30/ReadVariableOp", "shape": [64, 64], "dtype": "float32"}, {"name": "StatefulPartitionedCall/sequential_13_1/time_distributed_11_1/BiasAdd_30/ReadVariableOp", "shape": [64], "dtype": "float32"}, {"name": "StatefulPartitionedCall/sequential_13_1/time_distributed_11_1/strided_slice_32/stack", "shape": [1], "dtype": "int32"}, {"name": "StatefulPartitionedCall/sequential_13_1/time_distributed_11_1/strided_slice_32/stack_1", "shape": [1], "dtype": "int32"}, {"name": "StatefulPartitionedCall/sequential_13_1/time_distributed_11_1/strided_slice_32/stack_2", "shape": [1], "dtype": "int32"}, {"name": "StatefulPartitionedCall/sequential_13_1/time_distributed_11_1/Cast_31/ReadVariableOp", "shape": [64, 64], "dtype": "float32"}, {"name": "StatefulPartitionedCall/sequential_13_1/time_distributed_11_1/BiasAdd_31/ReadVariableOp", "shape": [64], "dtype": "float32"}, {"name": "StatefulPartitionedCall/sequential_13_1/time_distributed_11_1/strided_slice_33/stack", "shape": [1], "dtype": "int32"}, {"name": "StatefulPartitionedCall/sequential_13_1/time_distributed_11_1/strided_slice_33/stack_1", "shape": [1], "dtype": "int32"}, {"name": "StatefulPartitionedCall/sequential_13_1/time_distributed_11_1/strided_slice_33/stack_2", "shape": [1], "dtype": "int32"}, {"name": "StatefulPartitionedCall/sequential_13_1/time_distributed_11_1/Cast_32/ReadVariableOp", "shape": [64, 64], "dtype": "float32"}, {"name": "StatefulPartitionedCall/sequential_13_1/time_distributed_11_1/BiasAdd_32/ReadVariableOp", "shape": [64], "dtype": "float32"}, {"name": "StatefulPartitionedCall/sequential_13_1/time_distributed_11_1/strided_slice_34/stack", "shape": [1], "dtype": "int32"}, {"name": "StatefulPartitionedCall/sequential_13_1/time_distributed_11_1/strided_slice_34/stack_1", "shape": [1], "dtype": "int32"}, {"name": "StatefulPartitionedCall/sequential_13_1/time_distributed_11_1/strided_slice_34/stack_2", "shape": [1], "dtype": "int32"}, {"name": "StatefulPartitionedCall/sequential_13_1/time_distributed_11_1/Cast_33/ReadVariableOp", "shape": [64, 64], "dtype": "float32"}, {"name": "StatefulPartitionedCall/sequential_13_1/time_distributed_11_1/BiasAdd_33/ReadVariableOp", "shape": [64], "dtype": "float32"}, {"name": "StatefulPartitionedCall/sequential_13_1/time_distributed_11_1/strided_slice_35/stack", "shape": [1], "dtype": "int32"}, {"name": "StatefulPartitionedCall/sequential_13_1/time_distributed_11_1/strided_slice_35/stack_1", "shape": [1], "dtype": "int32"}, {"name": "StatefulPartitionedCall/sequential_13_1/time_distributed_11_1/strided_slice_35/stack_2", "shape": [1], "dtype": "int32"}, {"name": "StatefulPartitionedCall/sequential_13_1/time_distributed_11_1/Cast_34/ReadVariableOp", "shape": [64, 64], "dtype": "float32"}, {"name": "StatefulPartitionedCall/sequential_13_1/time_distributed_11_1/BiasAdd_34/ReadVariableOp", "shape": [64], "dtype": "float32"}, {"name": "StatefulPartitionedCall/sequential_13_1/time_distributed_11_1/strided_slice_36/stack", "shape": [1], "dtype": "int32"}, {"name": "StatefulPartitionedCall/sequential_13_1/time_distributed_11_1/strided_slice_36/stack_1", "shape": [1], "dtype": "int32"}, {"name": "StatefulPartitionedCall/sequential_13_1/time_distributed_11_1/strided_slice_36/stack_2", "shape": [1], "dtype": "int32"}, {"name": "StatefulPartitionedCall/sequential_13_1/time_distributed_11_1/Cast_35/ReadVariableOp", "shape": [64, 64], "dtype": "float32"}, {"name": "StatefulPartitionedCall/sequential_13_1/time_distributed_11_1/BiasAdd_35/ReadVariableOp", "shape": [64], "dtype": "float32"}, {"name": "StatefulPartitionedCall/sequential_13_1/time_distributed_11_1/strided_slice_37/stack", "shape": [1], "dtype": "int32"}, {"name": "StatefulPartitionedCall/sequential_13_1/time_distributed_11_1/strided_slice_37/stack_1", "shape": [1], "dtype": "int32"}, {"name": "StatefulPartitionedCall/sequential_13_1/time_distributed_11_1/strided_slice_37/stack_2", "shape": [1], "dtype": "int32"}, {"name": "StatefulPartitionedCall/sequential_13_1/time_distributed_11_1/Cast_36/ReadVariableOp", "shape": [64, 64], "dtype": "float32"}, {"name": "StatefulPartitionedCall/sequential_13_1/time_distributed_11_1/BiasAdd_36/ReadVariableOp", "shape": [64], "dtype": "float32"}, {"name": "StatefulPartitionedCall/sequential_13_1/time_distributed_11_1/strided_slice_38/stack", "shape": [1], "dtype": "int32"}, {"name": "StatefulPartitionedCall/sequential_13_1/time_distributed_11_1/strided_slice_38/stack_1", "shape": [1], "dtype": "int32"}, {"name": "StatefulPartitionedCall/sequential_13_1/time_distributed_11_1/strided_slice_38/stack_2", "shape": [1], "dtype": "int32"}, {"name": "StatefulPartitionedCall/sequential_13_1/time_distributed_11_1/Cast_37/ReadVariableOp", "shape": [64, 64], "dtype": "float32"}, {"name": "StatefulPartitionedCall/sequential_13_1/time_distributed_11_1/BiasAdd_37/ReadVariableOp", "shape": [64], "dtype": "float32"}, {"name": "StatefulPartitionedCall/sequential_13_1/time_distributed_11_1/strided_slice_39/stack", "shape": [1], "dtype": "int32"}, {"name": "StatefulPartitionedCall/sequential_13_1/time_distributed_11_1/strided_slice_39/stack_1", "shape": [1], "dtype": "int32"}, {"name": "StatefulPartitionedCall/sequential_13_1/time_distributed_11_1/strided_slice_39/stack_2", "shape": [1], "dtype": "int32"}, {"name": "StatefulPartitionedCall/sequential_13_1/time_distributed_11_1/Cast_38/ReadVariableOp", "shape": [64, 64], "dtype": "float32"}, {"name": "StatefulPartitionedCall/sequential_13_1/time_distributed_11_1/BiasAdd_38/ReadVariableOp", "shape": [64], "dtype": "float32"}, {"name": "StatefulPartitionedCall/sequential_13_1/time_distributed_11_1/strided_slice_40/stack", "shape": [1], "dtype": "int32"}, {"name": "StatefulPartitionedCall/sequential_13_1/time_distributed_11_1/strided_slice_40/stack_1", "shape": [1], "dtype": "int32"}, {"name": "StatefulPartitionedCall/sequential_13_1/time_distributed_11_1/strided_slice_40/stack_2", "shape": [1], "dtype": "int32"}, {"name": "StatefulPartitionedCall/sequential_13_1/time_distributed_11_1/Cast_39/ReadVariableOp", "shape": [64, 64], "dtype": "float32"}, {"name": "StatefulPartitionedCall/sequential_13_1/time_distributed_11_1/BiasAdd_39/ReadVariableOp", "shape": [64], "dtype": "float32"}, {"name": "StatefulPartitionedCall/sequential_13_1/time_distributed_11_1/strided_slice_41/stack", "shape": [1], "dtype": "int32"}, {"name": "StatefulPartitionedCall/sequential_13_1/time_distributed_11_1/strided_slice_41/stack_1", "shape": [1], "dtype": "int32"}, {"name": "StatefulPartitionedCall/sequential_13_1/time_distributed_11_1/strided_slice_41/stack_2", "shape": [1], "dtype": "int32"}, {"name": "StatefulPartitionedCall/sequential_13_1/time_distributed_11_1/Cast_40/ReadVariableOp", "shape": [64, 64], "dtype": "float32"}, {"name": "StatefulPartitionedCall/sequential_13_1/time_distributed_11_1/BiasAdd_40/ReadVariableOp", "shape": [64], "dtype": "float32"}, {"name": "StatefulPartitionedCall/sequential_13_1/time_distributed_11_1/strided_slice_42/stack", "shape": [1], "dtype": "int32"}, {"name": "StatefulPartitionedCall/sequential_13_1/time_distributed_11_1/strided_slice_42/stack_1", "shape": [1], "dtype": "int32"}, {"name": "StatefulPartitionedCall/sequential_13_1/time_distributed_11_1/strided_slice_42/stack_2", "shape": [1], "dtype": "int32"}, {"name": "StatefulPartitionedCall/sequential_13_1/time_distributed_11_1/Cast_41/ReadVariableOp", "shape": [64, 64], "dtype": "float32"}, {"name": "StatefulPartitionedCall/sequential_13_1/time_distributed_11_1/BiasAdd_41/ReadVariableOp", "shape": [64], "dtype": "float32"}, {"name": "StatefulPartitionedCall/sequential_13_1/time_distributed_11_1/strided_slice_43/stack", "shape": [1], "dtype": "int32"}, {"name": "StatefulPartitionedCall/sequential_13_1/time_distributed_11_1/strided_slice_43/stack_1", "shape": [1], "dtype": "int32"}, {"name": "StatefulPartitionedCall/sequential_13_1/time_distributed_11_1/strided_slice_43/stack_2", "shape": [1], "dtype": "int32"}, {"name": "StatefulPartitionedCall/sequential_13_1/time_distributed_11_1/Cast_42/ReadVariableOp", "shape": [64, 64], "dtype": "float32"}, {"name": "StatefulPartitionedCall/sequential_13_1/time_distributed_11_1/BiasAdd_42/ReadVariableOp", "shape": [64], "dtype": "float32"}, {"name": "StatefulPartitionedCall/sequential_13_1/time_distributed_11_1/strided_slice_44/stack", "shape": [1], "dtype": "int32"}, {"name": "StatefulPartitionedCall/sequential_13_1/time_distributed_11_1/strided_slice_44/stack_1", "shape": [1], "dtype": "int32"}, {"name": "StatefulPartitionedCall/sequential_13_1/time_distributed_11_1/strided_slice_44/stack_2", "shape": [1], "dtype": "int32"}, {"name": "StatefulPartitionedCall/sequential_13_1/time_distributed_11_1/Cast_43/ReadVariableOp", "shape": [64, 64], "dtype": "float32"}, {"name": "StatefulPartitionedCall/sequential_13_1/time_distributed_11_1/BiasAdd_43/ReadVariableOp", "shape": [64], "dtype": "float32"}, {"name": "StatefulPartitionedCall/sequential_13_1/time_distributed_11_1/strided_slice_45/stack", "shape": [1], "dtype": "int32"}, {"name": "StatefulPartitionedCall/sequential_13_1/time_distributed_11_1/strided_slice_45/stack_1", "shape": [1], "dtype": "int32"}, {"name": "StatefulPartitionedCall/sequential_13_1/time_distributed_11_1/strided_slice_45/stack_2", "shape": [1], "dtype": "int32"}, {"name": "StatefulPartitionedCall/sequential_13_1/time_distributed_11_1/Cast_44/ReadVariableOp", "shape": [64, 64], "dtype": "float32"}, {"name": "StatefulPartitionedCall/sequential_13_1/time_distributed_11_1/BiasAdd_44/ReadVariableOp", "shape": [64], "dtype": "float32"}, {"name": "StatefulPartitionedCall/sequential_13_1/time_distributed_11_1/strided_slice_46/stack", "shape": [1], "dtype": "int32"}, {"name": "StatefulPartitionedCall/sequential_13_1/time_distributed_11_1/strided_slice_46/stack_1", "shape": [1], "dtype": "int32"}, {"name": "StatefulPartitionedCall/sequential_13_1/time_distributed_11_1/strided_slice_46/stack_2", "shape": [1], "dtype": "int32"}, {"name": "StatefulPartitionedCall/sequential_13_1/time_distributed_11_1/Cast_45/ReadVariableOp", "shape": [64, 64], "dtype": "float32"}, {"name": "StatefulPartitionedCall/sequential_13_1/time_distributed_11_1/BiasAdd_45/ReadVariableOp", "shape": [64], "dtype": "float32"}, {"name": "StatefulPartitionedCall/sequential_13_1/time_distributed_11_1/strided_slice_47/stack", "shape": [1], "dtype": "int32"}, {"name": "StatefulPartitionedCall/sequential_13_1/time_distributed_11_1/strided_slice_47/stack_1", "shape": [1], "dtype": "int32"}, {"name": "StatefulPartitionedCall/sequential_13_1/time_distributed_11_1/strided_slice_47/stack_2", "shape": [1], "dtype": "int32"}, {"name": "StatefulPartitionedCall/sequential_13_1/time_distributed_11_1/Cast_46/ReadVariableOp", "shape": [64, 64], "dtype": "float32"}, {"name": "StatefulPartitionedCall/sequential_13_1/time_distributed_11_1/BiasAdd_46/ReadVariableOp", "shape": [64], "dtype": "float32"}, {"name": "StatefulPartitionedCall/sequential_13_1/time_distributed_11_1/strided_slice_48/stack", "shape": [1], "dtype": "int32"}, {"name": "StatefulPartitionedCall/sequential_13_1/time_distributed_11_1/strided_slice_48/stack_1", "shape": [1], "dtype": "int32"}, {"name": "StatefulPartitionedCall/sequential_13_1/time_distributed_11_1/strided_slice_48/stack_2", "shape": [1], "dtype": "int32"}, {"name": "StatefulPartitionedCall/sequential_13_1/time_distributed_11_1/Cast_47/ReadVariableOp", "shape": [64, 64], "dtype": "float32"}, {"name": "StatefulPartitionedCall/sequential_13_1/time_distributed_11_1/BiasAdd_47/ReadVariableOp", "shape": [64], "dtype": "float32"}, {"name": "StatefulPartitionedCall/sequential_13_1/time_distributed_11_1/strided_slice_49/stack", "shape": [1], "dtype": "int32"}, {"name": "StatefulPartitionedCall/sequential_13_1/time_distributed_11_1/strided_slice_49/stack_1", "shape": [1], "dtype": "int32"}, {"name": "StatefulPartitionedCall/sequential_13_1/time_distributed_11_1/strided_slice_49/stack_2", "shape": [1], "dtype": "int32"}, {"name": "StatefulPartitionedCall/sequential_13_1/time_distributed_11_1/Cast_48/ReadVariableOp", "shape": [64, 64], "dtype": "float32"}, {"name": "StatefulPartitionedCall/sequential_13_1/time_distributed_11_1/BiasAdd_48/ReadVariableOp", "shape": [64], "dtype": "float32"}, {"name": "StatefulPartitionedCall/sequential_13_1/time_distributed_11_1/strided_slice_50/stack", "shape": [1], "dtype": "int32"}, {"name": "StatefulPartitionedCall/sequential_13_1/time_distributed_11_1/strided_slice_50/stack_1", "shape": [1], "dtype": "int32"}, {"name": "StatefulPartitionedCall/sequential_13_1/time_distributed_11_1/strided_slice_50/stack_2", "shape": [1], "dtype": "int32"}, {"name": "StatefulPartitionedCall/sequential_13_1/time_distributed_11_1/Cast_49/ReadVariableOp", "shape": [64, 64], "dtype": "float32"}, {"name": "StatefulPartitionedCall/sequential_13_1/time_distributed_11_1/BiasAdd_49/ReadVariableOp", "shape": [64], "dtype": "float32"}, {"name": "StatefulPartitionedCall/sequential_13_1/time_distributed_11_1/strided_slice_51/stack", "shape": [1], "dtype": "int32"}, {"name": "StatefulPartitionedCall/sequential_13_1/time_distributed_11_1/strided_slice_51/stack_1", "shape": [1], "dtype": "int32"}, {"name": "StatefulPartitionedCall/sequential_13_1/time_distributed_11_1/strided_slice_51/stack_2", "shape": [1], "dtype": "int32"}, {"name": "StatefulPartitionedCall/sequential_13_1/time_distributed_11_1/Cast_50/ReadVariableOp", "shape": [64, 64], "dtype": "float32"}, {"name": "StatefulPartitionedCall/sequential_13_1/time_distributed_11_1/BiasAdd_50/ReadVariableOp", "shape": [64], "dtype": "float32"}, {"name": "StatefulPartitionedCall/sequential_13_1/time_distributed_11_1/strided_slice_52/stack", "shape": [1], "dtype": "int32"}, {"name": "StatefulPartitionedCall/sequential_13_1/time_distributed_11_1/strided_slice_52/stack_1", "shape": [1], "dtype": "int32"}, {"name": "StatefulPartitionedCall/sequential_13_1/time_distributed_11_1/strided_slice_52/stack_2", "shape": [1], "dtype": "int32"}, {"name": "StatefulPartitionedCall/sequential_13_1/time_distributed_11_1/Cast_51/ReadVariableOp", "shape": [64, 64], "dtype": "float32"}, {"name": "StatefulPartitionedCall/sequential_13_1/time_distributed_11_1/BiasAdd_51/ReadVariableOp", "shape": [64], "dtype": "float32"}, {"name": "StatefulPartitionedCall/sequential_13_1/time_distributed_11_1/strided_slice_53/stack", "shape": [1], "dtype": "int32"}, {"name": "StatefulPartitionedCall/sequential_13_1/time_distributed_11_1/strided_slice_53/stack_1", "shape": [1], "dtype": "int32"}, {"name": "StatefulPartitionedCall/sequential_13_1/time_distributed_11_1/strided_slice_53/stack_2", "shape": [1], "dtype": "int32"}, {"name": "StatefulPartitionedCall/sequential_13_1/time_distributed_11_1/Cast_52/ReadVariableOp", "shape": [64, 64], "dtype": "float32"}, {"name": "StatefulPartitionedCall/sequential_13_1/time_distributed_11_1/BiasAdd_52/ReadVariableOp", "shape": [64], "dtype": "float32"}, {"name": "StatefulPartitionedCall/sequential_13_1/time_distributed_11_1/strided_slice_54/stack", "shape": [1], "dtype": "int32"}, {"name": "StatefulPartitionedCall/sequential_13_1/time_distributed_11_1/strided_slice_54/stack_1", "shape": [1], "dtype": "int32"}, {"name": "StatefulPartitionedCall/sequential_13_1/time_distributed_11_1/strided_slice_54/stack_2", "shape": [1], "dtype": "int32"}, {"name": "StatefulPartitionedCall/sequential_13_1/time_distributed_11_1/Cast_53/ReadVariableOp", "shape": [64, 64], "dtype": "float32"}, {"name": "StatefulPartitionedCall/sequential_13_1/time_distributed_11_1/BiasAdd_53/ReadVariableOp", "shape": [64], "dtype": "float32"}, {"name": "StatefulPartitionedCall/sequential_13_1/time_distributed_11_1/strided_slice_55/stack", "shape": [1], "dtype": "int32"}, {"name": "StatefulPartitionedCall/sequential_13_1/time_distributed_11_1/strided_slice_55/stack_1", "shape": [1], "dtype": "int32"}, {"name": "StatefulPartitionedCall/sequential_13_1/time_distributed_11_1/strided_slice_55/stack_2", "shape": [1], "dtype": "int32"}, {"name": "StatefulPartitionedCall/sequential_13_1/time_distributed_11_1/Cast_54/ReadVariableOp", "shape": [64, 64], "dtype": "float32"}, {"name": "StatefulPartitionedCall/sequential_13_1/time_distributed_11_1/BiasAdd_54/ReadVariableOp", "shape": [64], "dtype": "float32"}, {"name": "StatefulPartitionedCall/sequential_13_1/time_distributed_11_1/strided_slice_56/stack", "shape": [1], "dtype": "int32"}, {"name": "StatefulPartitionedCall/sequential_13_1/time_distributed_11_1/strided_slice_56/stack_1", "shape": [1], "dtype": "int32"}, {"name": "StatefulPartitionedCall/sequential_13_1/time_distributed_11_1/strided_slice_56/stack_2", "shape": [1], "dtype": "int32"}, {"name": "StatefulPartitionedCall/sequential_13_1/time_distributed_11_1/Cast_55/ReadVariableOp", "shape": [64, 64], "dtype": "float32"}, {"name": "StatefulPartitionedCall/sequential_13_1/time_distributed_11_1/BiasAdd_55/ReadVariableOp", "shape": [64], "dtype": "float32"}, {"name": "StatefulPartitionedCall/sequential_13_1/time_distributed_11_1/strided_slice_57/stack", "shape": [1], "dtype": "int32"}, {"name": "StatefulPartitionedCall/sequential_13_1/time_distributed_11_1/strided_slice_57/stack_1", "shape": [1], "dtype": "int32"}, {"name": "StatefulPartitionedCall/sequential_13_1/time_distributed_11_1/strided_slice_57/stack_2", "shape": [1], "dtype": "int32"}, {"name": "StatefulPartitionedCall/sequential_13_1/time_distributed_11_1/Cast_56/ReadVariableOp", "shape": [64, 64], "dtype": "float32"}, {"name": "StatefulPartitionedCall/sequential_13_1/time_distributed_11_1/BiasAdd_56/ReadVariableOp", "shape": [64], "dtype": "float32"}, {"name": "StatefulPartitionedCall/sequential_13_1/time_distributed_11_1/strided_slice_58/stack", "shape": [1], "dtype": "int32"}, {"name": "StatefulPartitionedCall/sequential_13_1/time_distributed_11_1/strided_slice_58/stack_1", "shape": [1], "dtype": "int32"}, {"name": "StatefulPartitionedCall/sequential_13_1/time_distributed_11_1/strided_slice_58/stack_2", "shape": [1], "dtype": "int32"}, {"name": "StatefulPartitionedCall/sequential_13_1/time_distributed_11_1/Cast_57/ReadVariableOp", "shape": [64, 64], "dtype": "float32"}, {"name": "StatefulPartitionedCall/sequential_13_1/time_distributed_11_1/BiasAdd_57/ReadVariableOp", "shape": [64], "dtype": "float32"}, {"name": "StatefulPartitionedCall/sequential_13_1/time_distributed_11_1/strided_slice_59/stack", "shape": [1], "dtype": "int32"}, {"name": "StatefulPartitionedCall/sequential_13_1/time_distributed_11_1/strided_slice_59/stack_1", "shape": [1], "dtype": "int32"}, {"name": "StatefulPartitionedCall/sequential_13_1/time_distributed_11_1/strided_slice_59/stack_2", "shape": [1], "dtype": "int32"}, {"name": "StatefulPartitionedCall/sequential_13_1/time_distributed_11_1/Cast_58/ReadVariableOp", "shape": [64, 64], "dtype": "float32"}, {"name": "StatefulPartitionedCall/sequential_13_1/time_distributed_11_1/BiasAdd_58/ReadVariableOp", "shape": [64], "dtype": "float32"}, {"name": "StatefulPartitionedCall/sequential_13_1/lstm_53_1/zeros/packed/1", "shape": [], "dtype": "int32"}, {"name": "StatefulPartitionedCall/sequential_13_1/lstm_53_1/zeros/Const", "shape": [], "dtype": "float32"}, {"name": "StatefulPartitionedCall/sequential_13_1/lstm_53_1/ExpandDims/dim", "shape": [], "dtype": "int32"}, {"name": "StatefulPartitionedCall/sequential_13_1/lstm_53_1/strided_slice/stack", "shape": [1], "dtype": "int32"}, {"name": "StatefulPartitionedCall/sequential_13_1/lstm_53_1/strided_slice/stack_1", "shape": [1], "dtype": "int32"}, {"name": "StatefulPartitionedCall/sequential_13_1/lstm_53_1/strided_slice/stack_2", "shape": [1], "dtype": "int32"}, {"name": "StatefulPartitionedCall/sequential_13_1/lstm_53_1/zeros_1/packed/1", "shape": [], "dtype": "int32"}, {"name": "StatefulPartitionedCall/sequential_13_1/lstm_53_1/zeros_1/Const", "shape": [], "dtype": "float32"}, {"name": "StatefulPartitionedCall/sequential_13_1/lstm_53_1/ExpandDims_1/dim", "shape": [], "dtype": "int32"}, {"name": "StatefulPartitionedCall/sequential_13_1/lstm_53_1/concat_1", "shape": [49664], "dtype": "float32"}, {"name": "StatefulPartitionedCall/sequential_13_1/lstm_53_1/strided_slice_2/stack", "shape": [1], "dtype": "int32"}, {"name": "StatefulPartitionedCall/sequential_13_1/lstm_53_1/strided_slice_2/stack_1", "shape": [1], "dtype": "int32"}, {"name": "StatefulPartitionedCall/sequential_13_1/lstm_53_1/strided_slice_2/stack_2", "shape": [1], "dtype": "int32"}, {"name": "StatefulPartitionedCall/sequential_13_1/lstm_52_1/zeros/packed/1", "shape": [], "dtype": "int32"}, {"name": "StatefulPartitionedCall/sequential_13_1/lstm_52_1/zeros/Const", "shape": [], "dtype": "float32"}, {"name": "StatefulPartitionedCall/sequential_13_1/lstm_52_1/ExpandDims/dim", "shape": [], "dtype": "int32"}, {"name": "StatefulPartitionedCall/sequential_13_1/lstm_52_1/strided_slice/stack", "shape": [1], "dtype": "int32"}, {"name": "StatefulPartitionedCall/sequential_13_1/lstm_52_1/strided_slice/stack_1", "shape": [1], "dtype": "int32"}, {"name": "StatefulPartitionedCall/sequential_13_1/lstm_52_1/strided_slice/stack_2", "shape": [1], "dtype": "int32"}, {"name": "StatefulPartitionedCall/sequential_13_1/lstm_52_1/zeros_1/packed/1", "shape": [], "dtype": "int32"}, {"name": "StatefulPartitionedCall/sequential_13_1/lstm_52_1/zeros_1/Const", "shape": [], "dtype": "float32"}, {"name": "StatefulPartitionedCall/sequential_13_1/lstm_52_1/ExpandDims_1/dim", "shape": [], "dtype": "int32"}, {"name": "StatefulPartitionedCall/sequential_13_1/lstm_52_1/concat_1", "shape": [132096], "dtype": "float32"}, {"name": "StatefulPartitionedCall/sequential_13_1/lstm_52_1/strided_slice_2/stack", "shape": [1], "dtype": "int32"}, {"name": "StatefulPartitionedCall/sequential_13_1/lstm_52_1/strided_slice_2/stack_1", "shape": [1], "dtype": "int32"}, {"name": "StatefulPartitionedCall/sequential_13_1/lstm_52_1/strided_slice_2/stack_2", "shape": [1], "dtype": "int32"}, {"name": "StatefulPartitionedCall/sequential_13_1/lstm_51_1/zeros/packed/1", "shape": [], "dtype": "int32"}, {"name": "StatefulPartitionedCall/sequential_13_1/lstm_51_1/zeros/Const", "shape": [], "dtype": "float32"}, {"name": "StatefulPartitionedCall/sequential_13_1/lstm_51_1/ExpandDims/dim", "shape": [], "dtype": "int32"}, {"name": "StatefulPartitionedCall/sequential_13_1/lstm_51_1/strided_slice/stack", "shape": [1], "dtype": "int32"}, {"name": "StatefulPartitionedCall/sequential_13_1/lstm_51_1/strided_slice/stack_1", "shape": [1], "dtype": "int32"}, {"name": "StatefulPartitionedCall/sequential_13_1/lstm_51_1/strided_slice/stack_2", "shape": [1], "dtype": "int32"}, {"name": "StatefulPartitionedCall/sequential_13_1/lstm_51_1/zeros_1/packed/1", "shape": [], "dtype": "int32"}, {"name": "StatefulPartitionedCall/sequential_13_1/lstm_51_1/zeros_1/Const", "shape": [], "dtype": "float32"}, {"name": "StatefulPartitionedCall/sequential_13_1/lstm_51_1/ExpandDims_1/dim", "shape": [], "dtype": "int32"}, {"name": "StatefulPartitionedCall/sequential_13_1/lstm_51_1/concat_1", "shape": [328704], "dtype": "float32"}, {"name": "StatefulPartitionedCall/sequential_13_1/lstm_51_1/strided_slice_2/stack", "shape": [1], "dtype": "int32"}, {"name": "StatefulPartitionedCall/sequential_13_1/lstm_51_1/strided_slice_2/stack_1", "shape": [1], "dtype": "int32"}, {"name": "StatefulPartitionedCall/sequential_13_1/lstm_51_1/strided_slice_2/stack_2", "shape": [1], "dtype": "int32"}, {"name": "StatefulPartitionedCall/sequential_13_1/bidirectional_8_1/forward_lstm_50_1/zeros/packed/1", "shape": [], "dtype": "int32"}, {"name": "StatefulPartitionedCall/sequential_13_1/bidirectional_8_1/forward_lstm_50_1/zeros/Const", "shape": [], "dtype": "float32"}, {"name": "StatefulPartitionedCall/sequential_13_1/bidirectional_8_1/forward_lstm_50_1/ExpandDims/dim", "shape": [], "dtype": "int32"}, {"name": "StatefulPartitionedCall/sequential_13_1/bidirectional_8_1/forward_lstm_50_1/strided_slice/stack", "shape": [1], "dtype": "int32"}, {"name": "StatefulPartitionedCall/sequential_13_1/bidirectional_8_1/forward_lstm_50_1/strided_slice/stack_1", "shape": [1], "dtype": "int32"}, {"name": "StatefulPartitionedCall/sequential_13_1/bidirectional_8_1/forward_lstm_50_1/strided_slice/stack_2", "shape": [1], "dtype": "int32"}, {"name": "StatefulPartitionedCall/sequential_13_1/bidirectional_8_1/forward_lstm_50_1/zeros_1/packed/1", "shape": [], "dtype": "int32"}, {"name": "StatefulPartitionedCall/sequential_13_1/bidirectional_8_1/forward_lstm_50_1/zeros_1/Const", "shape": [], "dtype": "float32"}, {"name": "StatefulPartitionedCall/sequential_13_1/bidirectional_8_1/forward_lstm_50_1/ExpandDims_1/dim", "shape": [], "dtype": "int32"}, {"name": "StatefulPartitionedCall/sequential_13_1/bidirectional_8_1/forward_lstm_50_1/concat_1", "shape": [1966080], "dtype": "float32"}, {"name": "StatefulPartitionedCall/sequential_13_1/bidirectional_8_1/forward_lstm_50_1/strided_slice_2/stack", "shape": [1], "dtype": "int32"}, {"name": "StatefulPartitionedCall/sequential_13_1/bidirectional_8_1/forward_lstm_50_1/strided_slice_2/stack_1", "shape": [1], "dtype": "int32"}, {"name": "StatefulPartitionedCall/sequential_13_1/bidirectional_8_1/forward_lstm_50_1/strided_slice_2/stack_2", "shape": [1], "dtype": "int32"}, {"name": "StatefulPartitionedCall/sequential_13_1/bidirectional_8_1/forward_lstm_50_1/strided_slice_3/stack", "shape": [1], "dtype": "int32"}, {"name": "StatefulPartitionedCall/sequential_13_1/bidirectional_8_1/forward_lstm_50_1/strided_slice_3/stack_1", "shape": [1], "dtype": "int32"}, {"name": "StatefulPartitionedCall/sequential_13_1/bidirectional_8_1/forward_lstm_50_1/strided_slice_3/stack_2", "shape": [1], "dtype": "int32"}, {"name": "StatefulPartitionedCall/sequential_13_1/bidirectional_8_1/backward_lstm_50_1/zeros/packed/1", "shape": [], "dtype": "int32"}, {"name": "StatefulPartitionedCall/sequential_13_1/bidirectional_8_1/backward_lstm_50_1/zeros/Const", "shape": [], "dtype": "float32"}, {"name": "StatefulPartitionedCall/sequential_13_1/bidirectional_8_1/backward_lstm_50_1/ExpandDims/dim", "shape": [], "dtype": "int32"}, {"name": "StatefulPartitionedCall/sequential_13_1/bidirectional_8_1/backward_lstm_50_1/strided_slice/stack", "shape": [1], "dtype": "int32"}, {"name": "StatefulPartitionedCall/sequential_13_1/bidirectional_8_1/backward_lstm_50_1/strided_slice/stack_1", "shape": [1], "dtype": "int32"}, {"name": "StatefulPartitionedCall/sequential_13_1/bidirectional_8_1/backward_lstm_50_1/strided_slice/stack_2", "shape": [1], "dtype": "int32"}, {"name": "StatefulPartitionedCall/sequential_13_1/bidirectional_8_1/backward_lstm_50_1/zeros_1/packed/1", "shape": [], "dtype": "int32"}, {"name": "StatefulPartitionedCall/sequential_13_1/bidirectional_8_1/backward_lstm_50_1/zeros_1/Const", "shape": [], "dtype": "float32"}, {"name": "StatefulPartitionedCall/sequential_13_1/bidirectional_8_1/backward_lstm_50_1/ExpandDims_1/dim", "shape": [], "dtype": "int32"}, {"name": "StatefulPartitionedCall/sequential_13_1/bidirectional_8_1/backward_lstm_50_1/concat_1", "shape": [1966080], "dtype": "float32"}, {"name": "StatefulPartitionedCall/sequential_13_1/bidirectional_8_1/backward_lstm_50_1/strided_slice_2/stack", "shape": [1], "dtype": "int32"}, {"name": "StatefulPartitionedCall/sequential_13_1/bidirectional_8_1/backward_lstm_50_1/strided_slice_2/stack_1", "shape": [1], "dtype": "int32"}, {"name": "StatefulPartitionedCall/sequential_13_1/bidirectional_8_1/backward_lstm_50_1/strided_slice_2/stack_2", "shape": [1], "dtype": "int32"}, {"name": "StatefulPartitionedCall/sequential_13_1/bidirectional_8_1/backward_lstm_50_1/strided_slice_3/stack", "shape": [1], "dtype": "int32"}, {"name": "StatefulPartitionedCall/sequential_13_1/bidirectional_8_1/backward_lstm_50_1/strided_slice_3/stack_1", "shape": [1], "dtype": "int32"}, {"name": "StatefulPartitionedCall/sequential_13_1/bidirectional_8_1/backward_lstm_50_1/strided_slice_3/stack_2", "shape": [1], "dtype": "int32"}, {"name": "StatefulPartitionedCall/sequential_13_1/bidirectional_8_1/backward_lstm_50_1/ReverseV2/axis", "shape": [1], "dtype": "int32"}, {"name": "StatefulPartitionedCall/sequential_13_1/bidirectional_8_1/ReverseV2/axis", "shape": [1], "dtype": "int32"}, {"name": "StatefulPartitionedCall/sequential_13_1/bidirectional_8_1/concat/axis", "shape": [], "dtype": "int32"}, {"name": "StatefulPartitionedCall/sequential_13_1/lstm_51_1/strided_slice_3/stack", "shape": [1], "dtype": "int32"}, {"name": "StatefulPartitionedCall/sequential_13_1/lstm_51_1/strided_slice_3/stack_1", "shape": [1], "dtype": "int32"}, {"name": "StatefulPartitionedCall/sequential_13_1/lstm_51_1/strided_slice_3/stack_2", "shape": [1], "dtype": "int32"}, {"name": "StatefulPartitionedCall/sequential_13_1/lstm_52_1/strided_slice_3/stack", "shape": [1], "dtype": "int32"}, {"name": "StatefulPartitionedCall/sequential_13_1/lstm_52_1/strided_slice_3/stack_1", "shape": [1], "dtype": "int32"}, {"name": "StatefulPartitionedCall/sequential_13_1/lstm_52_1/strided_slice_3/stack_2", "shape": [1], "dtype": "int32"}, {"name": "StatefulPartitionedCall/sequential_13_1/lstm_53_1/strided_slice_3/stack", "shape": [1], "dtype": "int32"}, {"name": "StatefulPartitionedCall/sequential_13_1/lstm_53_1/strided_slice_3/stack_1", "shape": [1], "dtype": "int32"}, {"name": "StatefulPartitionedCall/sequential_13_1/lstm_53_1/strided_slice_3/stack_2", "shape": [1], "dtype": "int32"}, {"name": "StatefulPartitionedCall/sequential_13_1/time_distributed_11_1/transpose/perm", "shape": [3], "dtype": "int32"}, {"name": "StatefulPartitionedCall/sequential_13_1/time_distributed_11_1/strided_slice_60/stack", "shape": [1], "dtype": "int32"}, {"name": "StatefulPartitionedCall/sequential_13_1/time_distributed_11_1/strided_slice_60/stack_1", "shape": [1], "dtype": "int32"}, {"name": "StatefulPartitionedCall/sequential_13_1/time_distributed_11_1/strided_slice_60/stack_2", "shape": [1], "dtype": "int32"}, {"name": "StatefulPartitionedCall/sequential_13_1/time_distributed_11_1/Cast_59/ReadVariableOp", "shape": [64, 64], "dtype": "float32"}, {"name": "StatefulPartitionedCall/sequential_13_1/time_distributed_11_1/BiasAdd_59/ReadVariableOp", "shape": [64], "dtype": "float32"}, {"name": "StatefulPartitionedCall/sequential_13_1/time_distributed_11_1/transpose_1/perm", "shape": [3], "dtype": "int32"}, {"name": "StatefulPartitionedCall/sequential_13_1/lstm_54_1/strided_slice_3/stack", "shape": [1], "dtype": "int32"}, {"name": "StatefulPartitionedCall/sequential_13_1/lstm_54_1/strided_slice_3/stack_1", "shape": [1], "dtype": "int32"}, {"name": "StatefulPartitionedCall/sequential_13_1/lstm_54_1/strided_slice_3/stack_2", "shape": [1], "dtype": "int32"}, {"name": "StatefulPartitionedCall/sequential_13_1/dense_23_1/Cast/ReadVariableOp", "shape": [32, 8], "dtype": "float32"}, {"name": "StatefulPartitionedCall/sequential_13_1/dense_23_1/BiasAdd/ReadVariableOp", "shape": [8], "dtype": "float32"}, {"name": "ConstantFolding/StatefulPartitionedCall/sequential_13_1/bidirectional_8_1/forward_lstm_50_1/Fill/dims_const_axis", "shape": [], "dtype": "int32"}, {"name": "ConstantFolding/StatefulPartitionedCall/sequential_13_1/bidirectional_8_1/backward_lstm_50_1/Fill/dims_const_axis", "shape": [], "dtype": "int32"}, {"name": "ConstantFolding/StatefulPartitionedCall/sequential_13_1/lstm_51_1/Fill/dims_const_axis", "shape": [], "dtype": "int32"}, {"name": "ConstantFolding/StatefulPartitionedCall/sequential_13_1/lstm_52_1/Fill/dims_const_axis", "shape": [], "dtype": "int32"}, {"name": "ConstantFolding/StatefulPartitionedCall/sequential_13_1/lstm_53_1/Fill/dims_const_axis", "shape": [], "dtype": "int32"}, {"name": "ConstantFolding/StatefulPartitionedCall/sequential_13_1/lstm_54_1/Fill/dims_const_axis", "shape": [], "dtype": "int32"}]}]}